{
  "nodes": [
    {
      "op": "null", 
      "name": "data3", 
      "inputs": []
    }, 
    {
      "op": "repeat", 
      "name": "deeparpredictionnetwork0_repeat1", 
      "attrs": {
        "axis": "0", 
        "repeats": "100"
      }, 
      "inputs": [[0, 0, 0]]
    }, 
    {
      "op": "slice_axis", 
      "name": "deeparpredictionnetwork0_slice_axis43", 
      "attrs": {
        "axis": "1", 
        "begin": "-1", 
        "end": "None"
      }, 
      "inputs": [[1, 0, 0]]
    }, 
    {
      "op": "slice_axis", 
      "name": "deeparpredictionnetwork0_slice_axis44", 
      "attrs": {
        "axis": "1", 
        "begin": "-2", 
        "end": "-1"
      }, 
      "inputs": [[1, 0, 0]]
    }, 
    {
      "op": "slice_axis", 
      "name": "deeparpredictionnetwork0_slice_axis45", 
      "attrs": {
        "axis": "1", 
        "begin": "-3", 
        "end": "-2"
      }, 
      "inputs": [[1, 0, 0]]
    }, 
    {
      "op": "slice_axis", 
      "name": "deeparpredictionnetwork0_slice_axis46", 
      "attrs": {
        "axis": "1", 
        "begin": "-4", 
        "end": "-3"
      }, 
      "inputs": [[1, 0, 0]]
    }, 
    {
      "op": "slice_axis", 
      "name": "deeparpredictionnetwork0_slice_axis47", 
      "attrs": {
        "axis": "1", 
        "begin": "-5", 
        "end": "-4"
      }, 
      "inputs": [[1, 0, 0]]
    }, 
    {
      "op": "slice_axis", 
      "name": "deeparpredictionnetwork0_slice_axis48", 
      "attrs": {
        "axis": "1", 
        "begin": "-6", 
        "end": "-5"
      }, 
      "inputs": [[1, 0, 0]]
    }, 
    {
      "op": "slice_axis", 
      "name": "deeparpredictionnetwork0_slice_axis49", 
      "attrs": {
        "axis": "1", 
        "begin": "-7", 
        "end": "-6"
      }, 
      "inputs": [[1, 0, 0]]
    }, 
    {
      "op": "slice_axis", 
      "name": "deeparpredictionnetwork0_slice_axis50", 
      "attrs": {
        "axis": "1", 
        "begin": "-23", 
        "end": "-22"
      }, 
      "inputs": [[1, 0, 0]]
    }, 
    {
      "op": "slice_axis", 
      "name": "deeparpredictionnetwork0_slice_axis51", 
      "attrs": {
        "axis": "1", 
        "begin": "-24", 
        "end": "-23"
      }, 
      "inputs": [[1, 0, 0]]
    }, 
    {
      "op": "slice_axis", 
      "name": "deeparpredictionnetwork0_slice_axis52", 
      "attrs": {
        "axis": "1", 
        "begin": "-25", 
        "end": "-24"
      }, 
      "inputs": [[1, 0, 0]]
    }, 
    {
      "op": "slice_axis", 
      "name": "deeparpredictionnetwork0_slice_axis53", 
      "attrs": {
        "axis": "1", 
        "begin": "-47", 
        "end": "-46"
      }, 
      "inputs": [[1, 0, 0]]
    }, 
    {
      "op": "slice_axis", 
      "name": "deeparpredictionnetwork0_slice_axis54", 
      "attrs": {
        "axis": "1", 
        "begin": "-48", 
        "end": "-47"
      }, 
      "inputs": [[1, 0, 0]]
    }, 
    {
      "op": "slice_axis", 
      "name": "deeparpredictionnetwork0_slice_axis55", 
      "attrs": {
        "axis": "1", 
        "begin": "-49", 
        "end": "-48"
      }, 
      "inputs": [[1, 0, 0]]
    }, 
    {
      "op": "slice_axis", 
      "name": "deeparpredictionnetwork0_slice_axis56", 
      "attrs": {
        "axis": "1", 
        "begin": "-71", 
        "end": "-70"
      }, 
      "inputs": [[1, 0, 0]]
    }, 
    {
      "op": "slice_axis", 
      "name": "deeparpredictionnetwork0_slice_axis57", 
      "attrs": {
        "axis": "1", 
        "begin": "-72", 
        "end": "-71"
      }, 
      "inputs": [[1, 0, 0]]
    }, 
    {
      "op": "slice_axis", 
      "name": "deeparpredictionnetwork0_slice_axis58", 
      "attrs": {
        "axis": "1", 
        "begin": "-73", 
        "end": "-72"
      }, 
      "inputs": [[1, 0, 0]]
    }, 
    {
      "op": "slice_axis", 
      "name": "deeparpredictionnetwork0_slice_axis59", 
      "attrs": {
        "axis": "1", 
        "begin": "-95", 
        "end": "-94"
      }, 
      "inputs": [[1, 0, 0]]
    }, 
    {
      "op": "slice_axis", 
      "name": "deeparpredictionnetwork0_slice_axis60", 
      "attrs": {
        "axis": "1", 
        "begin": "-96", 
        "end": "-95"
      }, 
      "inputs": [[1, 0, 0]]
    }, 
    {
      "op": "slice_axis", 
      "name": "deeparpredictionnetwork0_slice_axis61", 
      "attrs": {
        "axis": "1", 
        "begin": "-97", 
        "end": "-96"
      }, 
      "inputs": [[1, 0, 0]]
    }, 
    {
      "op": "slice_axis", 
      "name": "deeparpredictionnetwork0_slice_axis62", 
      "attrs": {
        "axis": "1", 
        "begin": "-119", 
        "end": "-118"
      }, 
      "inputs": [[1, 0, 0]]
    }, 
    {
      "op": "slice_axis", 
      "name": "deeparpredictionnetwork0_slice_axis63", 
      "attrs": {
        "axis": "1", 
        "begin": "-120", 
        "end": "-119"
      }, 
      "inputs": [[1, 0, 0]]
    }, 
    {
      "op": "slice_axis", 
      "name": "deeparpredictionnetwork0_slice_axis64", 
      "attrs": {
        "axis": "1", 
        "begin": "-121", 
        "end": "-120"
      }, 
      "inputs": [[1, 0, 0]]
    }, 
    {
      "op": "slice_axis", 
      "name": "deeparpredictionnetwork0_slice_axis65", 
      "attrs": {
        "axis": "1", 
        "begin": "-143", 
        "end": "-142"
      }, 
      "inputs": [[1, 0, 0]]
    }, 
    {
      "op": "slice_axis", 
      "name": "deeparpredictionnetwork0_slice_axis66", 
      "attrs": {
        "axis": "1", 
        "begin": "-144", 
        "end": "-143"
      }, 
      "inputs": [[1, 0, 0]]
    }, 
    {
      "op": "slice_axis", 
      "name": "deeparpredictionnetwork0_slice_axis67", 
      "attrs": {
        "axis": "1", 
        "begin": "-145", 
        "end": "-144"
      }, 
      "inputs": [[1, 0, 0]]
    }, 
    {
      "op": "slice_axis", 
      "name": "deeparpredictionnetwork0_slice_axis68", 
      "attrs": {
        "axis": "1", 
        "begin": "-167", 
        "end": "-166"
      }, 
      "inputs": [[1, 0, 0]]
    }, 
    {
      "op": "slice_axis", 
      "name": "deeparpredictionnetwork0_slice_axis69", 
      "attrs": {
        "axis": "1", 
        "begin": "-168", 
        "end": "-167"
      }, 
      "inputs": [[1, 0, 0]]
    }, 
    {
      "op": "slice_axis", 
      "name": "deeparpredictionnetwork0_slice_axis70", 
      "attrs": {
        "axis": "1", 
        "begin": "-169", 
        "end": "-168"
      }, 
      "inputs": [[1, 0, 0]]
    }, 
    {
      "op": "slice_axis", 
      "name": "deeparpredictionnetwork0_slice_axis71", 
      "attrs": {
        "axis": "1", 
        "begin": "-335", 
        "end": "-334"
      }, 
      "inputs": [[1, 0, 0]]
    }, 
    {
      "op": "slice_axis", 
      "name": "deeparpredictionnetwork0_slice_axis72", 
      "attrs": {
        "axis": "1", 
        "begin": "-336", 
        "end": "-335"
      }, 
      "inputs": [[1, 0, 0]]
    }, 
    {
      "op": "slice_axis", 
      "name": "deeparpredictionnetwork0_slice_axis73", 
      "attrs": {
        "axis": "1", 
        "begin": "-337", 
        "end": "-336"
      }, 
      "inputs": [[1, 0, 0]]
    }, 
    {
      "op": "slice_axis", 
      "name": "deeparpredictionnetwork0_slice_axis74", 
      "attrs": {
        "axis": "1", 
        "begin": "-503", 
        "end": "-502"
      }, 
      "inputs": [[1, 0, 0]]
    }, 
    {
      "op": "slice_axis", 
      "name": "deeparpredictionnetwork0_slice_axis75", 
      "attrs": {
        "axis": "1", 
        "begin": "-504", 
        "end": "-503"
      }, 
      "inputs": [[1, 0, 0]]
    }, 
    {
      "op": "slice_axis", 
      "name": "deeparpredictionnetwork0_slice_axis76", 
      "attrs": {
        "axis": "1", 
        "begin": "-505", 
        "end": "-504"
      }, 
      "inputs": [[1, 0, 0]]
    }, 
    {
      "op": "slice_axis", 
      "name": "deeparpredictionnetwork0_slice_axis77", 
      "attrs": {
        "axis": "1", 
        "begin": "-671", 
        "end": "-670"
      }, 
      "inputs": [[1, 0, 0]]
    }, 
    {
      "op": "slice_axis", 
      "name": "deeparpredictionnetwork0_slice_axis78", 
      "attrs": {
        "axis": "1", 
        "begin": "-672", 
        "end": "-671"
      }, 
      "inputs": [[1, 0, 0]]
    }, 
    {
      "op": "slice_axis", 
      "name": "deeparpredictionnetwork0_slice_axis79", 
      "attrs": {
        "axis": "1", 
        "begin": "-673", 
        "end": "-672"
      }, 
      "inputs": [[1, 0, 0]]
    }, 
    {
      "op": "slice_axis", 
      "name": "deeparpredictionnetwork0_slice_axis80", 
      "attrs": {
        "axis": "1", 
        "begin": "-719", 
        "end": "-718"
      }, 
      "inputs": [[1, 0, 0]]
    }, 
    {
      "op": "slice_axis", 
      "name": "deeparpredictionnetwork0_slice_axis81", 
      "attrs": {
        "axis": "1", 
        "begin": "-720", 
        "end": "-719"
      }, 
      "inputs": [[1, 0, 0]]
    }, 
    {
      "op": "slice_axis", 
      "name": "deeparpredictionnetwork0_slice_axis82", 
      "attrs": {
        "axis": "1", 
        "begin": "-721", 
        "end": "-720"
      }, 
      "inputs": [[1, 0, 0]]
    }, 
    {
      "op": "stack", 
      "name": "deeparpredictionnetwork0_stack2", 
      "attrs": {
        "axis": "-1", 
        "num_args": "40"
      }, 
      "inputs": [
        [2, 0, 0], 
        [3, 0, 0], 
        [4, 0, 0], 
        [5, 0, 0], 
        [6, 0, 0], 
        [7, 0, 0], 
        [8, 0, 0], 
        [9, 0, 0], 
        [10, 0, 0], 
        [11, 0, 0], 
        [12, 0, 0], 
        [13, 0, 0], 
        [14, 0, 0], 
        [15, 0, 0], 
        [16, 0, 0], 
        [17, 0, 0], 
        [18, 0, 0], 
        [19, 0, 0], 
        [20, 0, 0], 
        [21, 0, 0], 
        [22, 0, 0], 
        [23, 0, 0], 
        [24, 0, 0], 
        [25, 0, 0], 
        [26, 0, 0], 
        [27, 0, 0], 
        [28, 0, 0], 
        [29, 0, 0], 
        [30, 0, 0], 
        [31, 0, 0], 
        [32, 0, 0], 
        [33, 0, 0], 
        [34, 0, 0], 
        [35, 0, 0], 
        [36, 0, 0], 
        [37, 0, 0], 
        [38, 0, 0], 
        [39, 0, 0], 
        [40, 0, 0], 
        [41, 0, 0]
      ]
    }, 
    {
      "op": "slice_axis", 
      "name": "deeparpredictionnetwork0_slice_axis41", 
      "attrs": {
        "axis": "1", 
        "begin": "-24", 
        "end": "None"
      }, 
      "inputs": [[0, 0, 0]]
    }, 
    {
      "op": "abs", 
      "name": "deeparpredictionnetwork0_meanscaler0_abs0", 
      "inputs": [[43, 0, 0]]
    }, 
    {
      "op": "null", 
      "name": "data4", 
      "inputs": []
    }, 
    {
      "op": "slice_axis", 
      "name": "deeparpredictionnetwork0_slice_axis42", 
      "attrs": {
        "axis": "1", 
        "begin": "-24", 
        "end": "None"
      }, 
      "inputs": [[45, 0, 0]]
    }, 
    {
      "op": "elemwise_mul", 
      "name": "deeparpredictionnetwork0_meanscaler0__mul0", 
      "inputs": [[44, 0, 0], [46, 0, 0]]
    }, 
    {
      "op": "sum", 
      "name": "deeparpredictionnetwork0_meanscaler0_sum1", 
      "attrs": {"axis": "1"}, 
      "inputs": [[47, 0, 0]]
    }, 
    {
      "op": "zeros_like", 
      "name": "deeparpredictionnetwork0_meanscaler0_zeros_like0", 
      "inputs": [[48, 0, 0]]
    }, 
    {
      "op": "broadcast_greater", 
      "name": "deeparpredictionnetwork0_meanscaler0_broadcast_greater0", 
      "inputs": [[48, 0, 0], [49, 0, 0]]
    }, 
    {
      "op": "sum", 
      "name": "deeparpredictionnetwork0_meanscaler0_sum0", 
      "attrs": {"axis": "1"}, 
      "inputs": [[46, 0, 0]]
    }, 
    {
      "op": "_maximum_scalar", 
      "name": "deeparpredictionnetwork0_meanscaler0__maximumscalar1", 
      "attrs": {"scalar": "1.0"}, 
      "inputs": [[51, 0, 0]]
    }, 
    {
      "op": "elemwise_div", 
      "name": "deeparpredictionnetwork0_meanscaler0__div1", 
      "inputs": [[48, 0, 0], [52, 0, 0]]
    }, 
    {
      "op": "sum", 
      "name": "deeparpredictionnetwork0_meanscaler0_sum3", 
      "attrs": {"axis": "0"}, 
      "inputs": [[48, 0, 0]]
    }, 
    {
      "op": "sum", 
      "name": "deeparpredictionnetwork0_meanscaler0_sum2", 
      "attrs": {"axis": "0"}, 
      "inputs": [[51, 0, 0]]
    }, 
    {
      "op": "_maximum_scalar", 
      "name": "deeparpredictionnetwork0_meanscaler0__maximumscalar0", 
      "attrs": {"scalar": "1.0"}, 
      "inputs": [[55, 0, 0]]
    }, 
    {
      "op": "elemwise_div", 
      "name": "deeparpredictionnetwork0_meanscaler0__div0", 
      "inputs": [[54, 0, 0], [56, 0, 0]]
    }, 
    {
      "op": "ones_like", 
      "name": "deeparpredictionnetwork0_meanscaler0_ones_like0", 
      "inputs": [[51, 0, 0]]
    }, 
    {
      "op": "broadcast_mul", 
      "name": "deeparpredictionnetwork0_meanscaler0_broadcast_mul0", 
      "inputs": [[57, 0, 0], [58, 0, 0]]
    }, 
    {
      "op": "where", 
      "name": "deeparpredictionnetwork0_meanscaler0_where0", 
      "inputs": [[50, 0, 0], [53, 0, 0], [59, 0, 0]]
    }, 
    {
      "op": "_maximum_scalar", 
      "name": "deeparpredictionnetwork0_meanscaler0__maximumscalar2", 
      "attrs": {"scalar": "1e-10"}, 
      "inputs": [[60, 0, 0]]
    }, 
    {
      "op": "expand_dims", 
      "name": "deeparpredictionnetwork0_meanscaler0_expand_dims0", 
      "attrs": {"axis": "1"}, 
      "inputs": [[61, 0, 0]]
    }, 
    {
      "op": "repeat", 
      "name": "deeparpredictionnetwork0_repeat4", 
      "attrs": {
        "axis": "0", 
        "repeats": "100"
      }, 
      "inputs": [[62, 0, 0]]
    }, 
    {
      "op": "expand_dims", 
      "name": "deeparpredictionnetwork0_expand_dims3", 
      "attrs": {"axis": "-1"}, 
      "inputs": [[63, 0, 0]]
    }, 
    {
      "op": "broadcast_div", 
      "name": "deeparpredictionnetwork0_broadcast_div1", 
      "inputs": [[42, 0, 0], [64, 0, 0]]
    }, 
    {
      "op": "Reshape", 
      "name": "deeparpredictionnetwork0_reshape1", 
      "attrs": {"shape": "(-1, 1, 40)"}, 
      "inputs": [[65, 0, 0]]
    }, 
    {
      "op": "null", 
      "name": "data5", 
      "inputs": []
    }, 
    {
      "op": "repeat", 
      "name": "deeparpredictionnetwork0_repeat2", 
      "attrs": {
        "axis": "0", 
        "repeats": "100"
      }, 
      "inputs": [[67, 0, 0]]
    }, 
    {
      "op": "slice_axis", 
      "name": "deeparpredictionnetwork0_slice_axis83", 
      "attrs": {
        "axis": "1", 
        "begin": "0", 
        "end": "1"
      }, 
      "inputs": [[68, 0, 0]]
    }, 
    {
      "op": "null", 
      "name": "data0", 
      "inputs": []
    }, 
    {
      "op": "squeeze", 
      "name": "deeparpredictionnetwork0_featureembedder0_squeeze0", 
      "attrs": {"axis": "-1"}, 
      "inputs": [[70, 0, 0]]
    }, 
    {
      "op": "null", 
      "name": "deeparpredictionnetwork0_featureembedder0_cat_0_embedding_weight", 
      "attrs": {
        "__dtype__": "0", 
        "__lr_mult__": "1.0", 
        "__shape__": "(1, 1)", 
        "__storage_type__": "0", 
        "__wd_mult__": "1.0"
      }, 
      "inputs": []
    }, 
    {
      "op": "Embedding", 
      "name": "deeparpredictionnetwork0_featureembedder0_cat_0_embedding_fwd", 
      "attrs": {
        "dtype": "float32", 
        "input_dim": "1", 
        "output_dim": "1", 
        "sparse_grad": "False"
      }, 
      "inputs": [[71, 0, 0], [72, 0, 0]]
    }, 
    {
      "op": "Concat", 
      "name": "deeparpredictionnetwork0_featureembedder0_concat0", 
      "attrs": {
        "dim": "-1", 
        "num_args": "1"
      }, 
      "inputs": [[73, 0, 0]]
    }, 
    {
      "op": "null", 
      "name": "data1", 
      "inputs": []
    }, 
    {
      "op": "log", 
      "name": "deeparpredictionnetwork0_log0", 
      "inputs": [[62, 0, 0]]
    }, 
    {
      "op": "Concat", 
      "name": "deeparpredictionnetwork0_concat0", 
      "attrs": {
        "dim": "1", 
        "num_args": "3"
      }, 
      "inputs": [[74, 0, 0], [75, 0, 0], [76, 0, 0]]
    }, 
    {
      "op": "repeat", 
      "name": "deeparpredictionnetwork0_repeat3", 
      "attrs": {
        "axis": "0", 
        "repeats": "100"
      }, 
      "inputs": [[77, 0, 0]]
    }, 
    {
      "op": "expand_dims", 
      "name": "deeparpredictionnetwork0_expand_dims2", 
      "attrs": {"axis": "1"}, 
      "inputs": [[78, 0, 0]]
    }, 
    {
      "op": "Concat", 
      "name": "deeparpredictionnetwork0_concat2", 
      "attrs": {
        "dim": "-1", 
        "num_args": "3"
      }, 
      "inputs": [[66, 0, 0], [69, 0, 0], [79, 0, 0]]
    }, 
    {
      "op": "SliceChannel", 
      "name": "deeparpredictionnetwork0_split1", 
      "attrs": {
        "axis": "1", 
        "num_outputs": "1", 
        "squeeze_axis": "1"
      }, 
      "inputs": [[80, 0, 0]]
    }, 
    {
      "op": "null", 
      "name": "deeparpredictionnetwork0_lstm0_i2h_weight", 
      "attrs": {
        "__dtype__": "0", 
        "__lr_mult__": "1.0", 
        "__shape__": "(160, 48)", 
        "__storage_type__": "0", 
        "__wd_mult__": "1.0"
      }, 
      "inputs": []
    }, 
    {
      "op": "null", 
      "name": "deeparpredictionnetwork0_lstm0_i2h_bias", 
      "attrs": {
        "__dtype__": "0", 
        "__init__": "zeros", 
        "__lr_mult__": "1.0", 
        "__shape__": "(160,)", 
        "__storage_type__": "0", 
        "__wd_mult__": "1.0"
      }, 
      "inputs": []
    }, 
    {
      "op": "FullyConnected", 
      "name": "deeparpredictionnetwork0_lstm0_t0_i2h", 
      "attrs": {"num_hidden": "160"}, 
      "inputs": [[81, 0, 0], [82, 0, 0], [83, 0, 0]]
    }, 
    {
      "op": "slice_axis", 
      "name": "deeparpredictionnetwork0_slice_axis1", 
      "attrs": {
        "axis": "1", 
        "begin": "-25", 
        "end": "-1"
      }, 
      "inputs": [[0, 0, 0]]
    }, 
    {
      "op": "slice_axis", 
      "name": "deeparpredictionnetwork0_slice_axis2", 
      "attrs": {
        "axis": "1", 
        "begin": "-26", 
        "end": "-2"
      }, 
      "inputs": [[0, 0, 0]]
    }, 
    {
      "op": "slice_axis", 
      "name": "deeparpredictionnetwork0_slice_axis3", 
      "attrs": {
        "axis": "1", 
        "begin": "-27", 
        "end": "-3"
      }, 
      "inputs": [[0, 0, 0]]
    }, 
    {
      "op": "slice_axis", 
      "name": "deeparpredictionnetwork0_slice_axis4", 
      "attrs": {
        "axis": "1", 
        "begin": "-28", 
        "end": "-4"
      }, 
      "inputs": [[0, 0, 0]]
    }, 
    {
      "op": "slice_axis", 
      "name": "deeparpredictionnetwork0_slice_axis5", 
      "attrs": {
        "axis": "1", 
        "begin": "-29", 
        "end": "-5"
      }, 
      "inputs": [[0, 0, 0]]
    }, 
    {
      "op": "slice_axis", 
      "name": "deeparpredictionnetwork0_slice_axis6", 
      "attrs": {
        "axis": "1", 
        "begin": "-30", 
        "end": "-6"
      }, 
      "inputs": [[0, 0, 0]]
    }, 
    {
      "op": "slice_axis", 
      "name": "deeparpredictionnetwork0_slice_axis7", 
      "attrs": {
        "axis": "1", 
        "begin": "-31", 
        "end": "-7"
      }, 
      "inputs": [[0, 0, 0]]
    }, 
    {
      "op": "slice_axis", 
      "name": "deeparpredictionnetwork0_slice_axis8", 
      "attrs": {
        "axis": "1", 
        "begin": "-47", 
        "end": "-23"
      }, 
      "inputs": [[0, 0, 0]]
    }, 
    {
      "op": "slice_axis", 
      "name": "deeparpredictionnetwork0_slice_axis9", 
      "attrs": {
        "axis": "1", 
        "begin": "-48", 
        "end": "-24"
      }, 
      "inputs": [[0, 0, 0]]
    }, 
    {
      "op": "slice_axis", 
      "name": "deeparpredictionnetwork0_slice_axis10", 
      "attrs": {
        "axis": "1", 
        "begin": "-49", 
        "end": "-25"
      }, 
      "inputs": [[0, 0, 0]]
    }, 
    {
      "op": "slice_axis", 
      "name": "deeparpredictionnetwork0_slice_axis11", 
      "attrs": {
        "axis": "1", 
        "begin": "-71", 
        "end": "-47"
      }, 
      "inputs": [[0, 0, 0]]
    }, 
    {
      "op": "slice_axis", 
      "name": "deeparpredictionnetwork0_slice_axis12", 
      "attrs": {
        "axis": "1", 
        "begin": "-72", 
        "end": "-48"
      }, 
      "inputs": [[0, 0, 0]]
    }, 
    {
      "op": "slice_axis", 
      "name": "deeparpredictionnetwork0_slice_axis13", 
      "attrs": {
        "axis": "1", 
        "begin": "-73", 
        "end": "-49"
      }, 
      "inputs": [[0, 0, 0]]
    }, 
    {
      "op": "slice_axis", 
      "name": "deeparpredictionnetwork0_slice_axis14", 
      "attrs": {
        "axis": "1", 
        "begin": "-95", 
        "end": "-71"
      }, 
      "inputs": [[0, 0, 0]]
    }, 
    {
      "op": "slice_axis", 
      "name": "deeparpredictionnetwork0_slice_axis15", 
      "attrs": {
        "axis": "1", 
        "begin": "-96", 
        "end": "-72"
      }, 
      "inputs": [[0, 0, 0]]
    }, 
    {
      "op": "slice_axis", 
      "name": "deeparpredictionnetwork0_slice_axis16", 
      "attrs": {
        "axis": "1", 
        "begin": "-97", 
        "end": "-73"
      }, 
      "inputs": [[0, 0, 0]]
    }, 
    {
      "op": "slice_axis", 
      "name": "deeparpredictionnetwork0_slice_axis17", 
      "attrs": {
        "axis": "1", 
        "begin": "-119", 
        "end": "-95"
      }, 
      "inputs": [[0, 0, 0]]
    }, 
    {
      "op": "slice_axis", 
      "name": "deeparpredictionnetwork0_slice_axis18", 
      "attrs": {
        "axis": "1", 
        "begin": "-120", 
        "end": "-96"
      }, 
      "inputs": [[0, 0, 0]]
    }, 
    {
      "op": "slice_axis", 
      "name": "deeparpredictionnetwork0_slice_axis19", 
      "attrs": {
        "axis": "1", 
        "begin": "-121", 
        "end": "-97"
      }, 
      "inputs": [[0, 0, 0]]
    }, 
    {
      "op": "slice_axis", 
      "name": "deeparpredictionnetwork0_slice_axis20", 
      "attrs": {
        "axis": "1", 
        "begin": "-143", 
        "end": "-119"
      }, 
      "inputs": [[0, 0, 0]]
    }, 
    {
      "op": "slice_axis", 
      "name": "deeparpredictionnetwork0_slice_axis21", 
      "attrs": {
        "axis": "1", 
        "begin": "-144", 
        "end": "-120"
      }, 
      "inputs": [[0, 0, 0]]
    }, 
    {
      "op": "slice_axis", 
      "name": "deeparpredictionnetwork0_slice_axis22", 
      "attrs": {
        "axis": "1", 
        "begin": "-145", 
        "end": "-121"
      }, 
      "inputs": [[0, 0, 0]]
    }, 
    {
      "op": "slice_axis", 
      "name": "deeparpredictionnetwork0_slice_axis23", 
      "attrs": {
        "axis": "1", 
        "begin": "-167", 
        "end": "-143"
      }, 
      "inputs": [[0, 0, 0]]
    }, 
    {
      "op": "slice_axis", 
      "name": "deeparpredictionnetwork0_slice_axis24", 
      "attrs": {
        "axis": "1", 
        "begin": "-168", 
        "end": "-144"
      }, 
      "inputs": [[0, 0, 0]]
    }, 
    {
      "op": "slice_axis", 
      "name": "deeparpredictionnetwork0_slice_axis25", 
      "attrs": {
        "axis": "1", 
        "begin": "-169", 
        "end": "-145"
      }, 
      "inputs": [[0, 0, 0]]
    }, 
    {
      "op": "slice_axis", 
      "name": "deeparpredictionnetwork0_slice_axis26", 
      "attrs": {
        "axis": "1", 
        "begin": "-191", 
        "end": "-167"
      }, 
      "inputs": [[0, 0, 0]]
    }, 
    {
      "op": "slice_axis", 
      "name": "deeparpredictionnetwork0_slice_axis27", 
      "attrs": {
        "axis": "1", 
        "begin": "-192", 
        "end": "-168"
      }, 
      "inputs": [[0, 0, 0]]
    }, 
    {
      "op": "slice_axis", 
      "name": "deeparpredictionnetwork0_slice_axis28", 
      "attrs": {
        "axis": "1", 
        "begin": "-193", 
        "end": "-169"
      }, 
      "inputs": [[0, 0, 0]]
    }, 
    {
      "op": "slice_axis", 
      "name": "deeparpredictionnetwork0_slice_axis29", 
      "attrs": {
        "axis": "1", 
        "begin": "-359", 
        "end": "-335"
      }, 
      "inputs": [[0, 0, 0]]
    }, 
    {
      "op": "slice_axis", 
      "name": "deeparpredictionnetwork0_slice_axis30", 
      "attrs": {
        "axis": "1", 
        "begin": "-360", 
        "end": "-336"
      }, 
      "inputs": [[0, 0, 0]]
    }, 
    {
      "op": "slice_axis", 
      "name": "deeparpredictionnetwork0_slice_axis31", 
      "attrs": {
        "axis": "1", 
        "begin": "-361", 
        "end": "-337"
      }, 
      "inputs": [[0, 0, 0]]
    }, 
    {
      "op": "slice_axis", 
      "name": "deeparpredictionnetwork0_slice_axis32", 
      "attrs": {
        "axis": "1", 
        "begin": "-527", 
        "end": "-503"
      }, 
      "inputs": [[0, 0, 0]]
    }, 
    {
      "op": "slice_axis", 
      "name": "deeparpredictionnetwork0_slice_axis33", 
      "attrs": {
        "axis": "1", 
        "begin": "-528", 
        "end": "-504"
      }, 
      "inputs": [[0, 0, 0]]
    }, 
    {
      "op": "slice_axis", 
      "name": "deeparpredictionnetwork0_slice_axis34", 
      "attrs": {
        "axis": "1", 
        "begin": "-529", 
        "end": "-505"
      }, 
      "inputs": [[0, 0, 0]]
    }, 
    {
      "op": "slice_axis", 
      "name": "deeparpredictionnetwork0_slice_axis35", 
      "attrs": {
        "axis": "1", 
        "begin": "-695", 
        "end": "-671"
      }, 
      "inputs": [[0, 0, 0]]
    }, 
    {
      "op": "slice_axis", 
      "name": "deeparpredictionnetwork0_slice_axis36", 
      "attrs": {
        "axis": "1", 
        "begin": "-696", 
        "end": "-672"
      }, 
      "inputs": [[0, 0, 0]]
    }, 
    {
      "op": "slice_axis", 
      "name": "deeparpredictionnetwork0_slice_axis37", 
      "attrs": {
        "axis": "1", 
        "begin": "-697", 
        "end": "-673"
      }, 
      "inputs": [[0, 0, 0]]
    }, 
    {
      "op": "slice_axis", 
      "name": "deeparpredictionnetwork0_slice_axis38", 
      "attrs": {
        "axis": "1", 
        "begin": "-743", 
        "end": "-719"
      }, 
      "inputs": [[0, 0, 0]]
    }, 
    {
      "op": "slice_axis", 
      "name": "deeparpredictionnetwork0_slice_axis39", 
      "attrs": {
        "axis": "1", 
        "begin": "-744", 
        "end": "-720"
      }, 
      "inputs": [[0, 0, 0]]
    }, 
    {
      "op": "slice_axis", 
      "name": "deeparpredictionnetwork0_slice_axis40", 
      "attrs": {
        "axis": "1", 
        "begin": "-745", 
        "end": "-721"
      }, 
      "inputs": [[0, 0, 0]]
    }, 
    {
      "op": "stack", 
      "name": "deeparpredictionnetwork0_stack0", 
      "attrs": {
        "axis": "-1", 
        "num_args": "40"
      }, 
      "inputs": [
        [85, 0, 0], 
        [86, 0, 0], 
        [87, 0, 0], 
        [88, 0, 0], 
        [89, 0, 0], 
        [90, 0, 0], 
        [91, 0, 0], 
        [92, 0, 0], 
        [93, 0, 0], 
        [94, 0, 0], 
        [95, 0, 0], 
        [96, 0, 0], 
        [97, 0, 0], 
        [98, 0, 0], 
        [99, 0, 0], 
        [100, 0, 0], 
        [101, 0, 0], 
        [102, 0, 0], 
        [103, 0, 0], 
        [104, 0, 0], 
        [105, 0, 0], 
        [106, 0, 0], 
        [107, 0, 0], 
        [108, 0, 0], 
        [109, 0, 0], 
        [110, 0, 0], 
        [111, 0, 0], 
        [112, 0, 0], 
        [113, 0, 0], 
        [114, 0, 0], 
        [115, 0, 0], 
        [116, 0, 0], 
        [117, 0, 0], 
        [118, 0, 0], 
        [119, 0, 0], 
        [120, 0, 0], 
        [121, 0, 0], 
        [122, 0, 0], 
        [123, 0, 0], 
        [124, 0, 0]
      ]
    }, 
    {
      "op": "expand_dims", 
      "name": "deeparpredictionnetwork0_expand_dims1", 
      "attrs": {"axis": "-1"}, 
      "inputs": [[62, 0, 0]]
    }, 
    {
      "op": "broadcast_div", 
      "name": "deeparpredictionnetwork0_broadcast_div0", 
      "inputs": [[125, 0, 0], [126, 0, 0]]
    }, 
    {
      "op": "Reshape", 
      "name": "deeparpredictionnetwork0_reshape0", 
      "attrs": {"shape": "(-1, 24, 40)"}, 
      "inputs": [[127, 0, 0]]
    }, 
    {
      "op": "null", 
      "name": "data2", 
      "inputs": []
    }, 
    {
      "op": "slice_axis", 
      "name": "deeparpredictionnetwork0_slice_axis0", 
      "attrs": {
        "axis": "1", 
        "begin": "721", 
        "end": "None"
      }, 
      "inputs": [[129, 0, 0]]
    }, 
    {
      "op": "expand_dims", 
      "name": "deeparpredictionnetwork0_expand_dims0", 
      "attrs": {"axis": "1"}, 
      "inputs": [[77, 0, 0]]
    }, 
    {
      "op": "repeat", 
      "name": "deeparpredictionnetwork0_repeat0", 
      "attrs": {
        "axis": "1", 
        "repeats": "24"
      }, 
      "inputs": [[131, 0, 0]]
    }, 
    {
      "op": "Concat", 
      "name": "deeparpredictionnetwork0_concat1", 
      "attrs": {
        "dim": "-1", 
        "num_args": "3"
      }, 
      "inputs": [[128, 0, 0], [130, 0, 0], [132, 0, 0]]
    }, 
    {
      "op": "SliceChannel", 
      "name": "deeparpredictionnetwork0_split0", 
      "attrs": {
        "axis": "1", 
        "num_outputs": "24", 
        "squeeze_axis": "1"
      }, 
      "inputs": [[133, 0, 0]]
    }, 
    {
      "op": "FullyConnected", 
      "name": "deeparpredictionnetwork0_lstm0_t23_i2h", 
      "attrs": {"num_hidden": "160"}, 
      "inputs": [[134, 23, 0], [82, 0, 0], [83, 0, 0]]
    }, 
    {
      "op": "FullyConnected", 
      "name": "deeparpredictionnetwork0_lstm0_t22_i2h", 
      "attrs": {"num_hidden": "160"}, 
      "inputs": [[134, 22, 0], [82, 0, 0], [83, 0, 0]]
    }, 
    {
      "op": "FullyConnected", 
      "name": "deeparpredictionnetwork0_lstm0_t21_i2h", 
      "attrs": {"num_hidden": "160"}, 
      "inputs": [[134, 21, 0], [82, 0, 0], [83, 0, 0]]
    }, 
    {
      "op": "FullyConnected", 
      "name": "deeparpredictionnetwork0_lstm0_t20_i2h", 
      "attrs": {"num_hidden": "160"}, 
      "inputs": [[134, 20, 0], [82, 0, 0], [83, 0, 0]]
    }, 
    {
      "op": "FullyConnected", 
      "name": "deeparpredictionnetwork0_lstm0_t19_i2h", 
      "attrs": {"num_hidden": "160"}, 
      "inputs": [[134, 19, 0], [82, 0, 0], [83, 0, 0]]
    }, 
    {
      "op": "FullyConnected", 
      "name": "deeparpredictionnetwork0_lstm0_t18_i2h", 
      "attrs": {"num_hidden": "160"}, 
      "inputs": [[134, 18, 0], [82, 0, 0], [83, 0, 0]]
    }, 
    {
      "op": "FullyConnected", 
      "name": "deeparpredictionnetwork0_lstm0_t17_i2h", 
      "attrs": {"num_hidden": "160"}, 
      "inputs": [[134, 17, 0], [82, 0, 0], [83, 0, 0]]
    }, 
    {
      "op": "FullyConnected", 
      "name": "deeparpredictionnetwork0_lstm0_t16_i2h", 
      "attrs": {"num_hidden": "160"}, 
      "inputs": [[134, 16, 0], [82, 0, 0], [83, 0, 0]]
    }, 
    {
      "op": "FullyConnected", 
      "name": "deeparpredictionnetwork0_lstm0_t15_i2h", 
      "attrs": {"num_hidden": "160"}, 
      "inputs": [[134, 15, 0], [82, 0, 0], [83, 0, 0]]
    }, 
    {
      "op": "FullyConnected", 
      "name": "deeparpredictionnetwork0_lstm0_t14_i2h", 
      "attrs": {"num_hidden": "160"}, 
      "inputs": [[134, 14, 0], [82, 0, 0], [83, 0, 0]]
    }, 
    {
      "op": "FullyConnected", 
      "name": "deeparpredictionnetwork0_lstm0_t13_i2h", 
      "attrs": {"num_hidden": "160"}, 
      "inputs": [[134, 13, 0], [82, 0, 0], [83, 0, 0]]
    }, 
    {
      "op": "FullyConnected", 
      "name": "deeparpredictionnetwork0_lstm0_t12_i2h", 
      "attrs": {"num_hidden": "160"}, 
      "inputs": [[134, 12, 0], [82, 0, 0], [83, 0, 0]]
    }, 
    {
      "op": "FullyConnected", 
      "name": "deeparpredictionnetwork0_lstm0_t11_i2h", 
      "attrs": {"num_hidden": "160"}, 
      "inputs": [[134, 11, 0], [82, 0, 0], [83, 0, 0]]
    }, 
    {
      "op": "FullyConnected", 
      "name": "deeparpredictionnetwork0_lstm0_t10_i2h", 
      "attrs": {"num_hidden": "160"}, 
      "inputs": [[134, 10, 0], [82, 0, 0], [83, 0, 0]]
    }, 
    {
      "op": "FullyConnected", 
      "name": "deeparpredictionnetwork0_lstm0_t9_i2h", 
      "attrs": {"num_hidden": "160"}, 
      "inputs": [[134, 9, 0], [82, 0, 0], [83, 0, 0]]
    }, 
    {
      "op": "FullyConnected", 
      "name": "deeparpredictionnetwork0_lstm0_t8_i2h", 
      "attrs": {"num_hidden": "160"}, 
      "inputs": [[134, 8, 0], [82, 0, 0], [83, 0, 0]]
    }, 
    {
      "op": "FullyConnected", 
      "name": "deeparpredictionnetwork0_lstm0_t7_i2h", 
      "attrs": {"num_hidden": "160"}, 
      "inputs": [[134, 7, 0], [82, 0, 0], [83, 0, 0]]
    }, 
    {
      "op": "FullyConnected", 
      "name": "deeparpredictionnetwork0_lstm0_t6_i2h", 
      "attrs": {"num_hidden": "160"}, 
      "inputs": [[134, 6, 0], [82, 0, 0], [83, 0, 0]]
    }, 
    {
      "op": "FullyConnected", 
      "name": "deeparpredictionnetwork0_lstm0_t5_i2h", 
      "attrs": {"num_hidden": "160"}, 
      "inputs": [[134, 5, 0], [82, 0, 0], [83, 0, 0]]
    }, 
    {
      "op": "FullyConnected", 
      "name": "deeparpredictionnetwork0_lstm0_t4_i2h", 
      "attrs": {"num_hidden": "160"}, 
      "inputs": [[134, 4, 0], [82, 0, 0], [83, 0, 0]]
    }, 
    {
      "op": "FullyConnected", 
      "name": "deeparpredictionnetwork0_lstm0_t3_i2h", 
      "attrs": {"num_hidden": "160"}, 
      "inputs": [[134, 3, 0], [82, 0, 0], [83, 0, 0]]
    }, 
    {
      "op": "FullyConnected", 
      "name": "deeparpredictionnetwork0_lstm0_t2_i2h", 
      "attrs": {"num_hidden": "160"}, 
      "inputs": [[134, 2, 0], [82, 0, 0], [83, 0, 0]]
    }, 
    {
      "op": "FullyConnected", 
      "name": "deeparpredictionnetwork0_lstm0_t1_i2h", 
      "attrs": {"num_hidden": "160"}, 
      "inputs": [[134, 1, 0], [82, 0, 0], [83, 0, 0]]
    }, 
    {
      "op": "FullyConnected", 
      "name": "deeparpredictionnetwork0_lstm0_t0_i2h", 
      "attrs": {"num_hidden": "160"}, 
      "inputs": [[134, 0, 0], [82, 0, 0], [83, 0, 0]]
    }, 
    {
      "op": "_zeros", 
      "name": "deeparpredictionnetwork0_deeparpredictionnetwork0_lstm0_begin_state_0", 
      "attrs": {
        "__layout__": "NC", 
        "dtype": "float32", 
        "shape": "(0, 40)"
      }, 
      "inputs": []
    }, 
    {
      "op": "null", 
      "name": "deeparpredictionnetwork0_lstm0_h2h_weight", 
      "attrs": {
        "__dtype__": "0", 
        "__lr_mult__": "1.0", 
        "__shape__": "(160, 40)", 
        "__storage_type__": "0", 
        "__wd_mult__": "1.0"
      }, 
      "inputs": []
    }, 
    {
      "op": "null", 
      "name": "deeparpredictionnetwork0_lstm0_h2h_bias", 
      "attrs": {
        "__dtype__": "0", 
        "__init__": "zeros", 
        "__lr_mult__": "1.0", 
        "__shape__": "(160,)", 
        "__storage_type__": "0", 
        "__wd_mult__": "1.0"
      }, 
      "inputs": []
    }, 
    {
      "op": "FullyConnected", 
      "name": "deeparpredictionnetwork0_lstm0_t0_h2h", 
      "attrs": {"num_hidden": "160"}, 
      "inputs": [[159, 0, 0], [160, 0, 0], [161, 0, 0]]
    }, 
    {
      "op": "elemwise_add", 
      "name": "deeparpredictionnetwork0_lstm0_t0_plus0", 
      "inputs": [[158, 0, 0], [162, 0, 0]]
    }, 
    {
      "op": "SliceChannel", 
      "name": "deeparpredictionnetwork0_lstm0_t0_slice", 
      "attrs": {"num_outputs": "4"}, 
      "inputs": [[163, 0, 0]]
    }, 
    {
      "op": "sigmoid", 
      "name": "deeparpredictionnetwork0_lstm0_t0_o", 
      "inputs": [[164, 3, 0]]
    }, 
    {
      "op": "sigmoid", 
      "name": "deeparpredictionnetwork0_lstm0_t0_f", 
      "inputs": [[164, 1, 0]]
    }, 
    {
      "op": "_zeros", 
      "name": "deeparpredictionnetwork0_deeparpredictionnetwork0_lstm0_begin_state_1", 
      "attrs": {
        "__layout__": "NC", 
        "dtype": "float32", 
        "shape": "(0, 40)"
      }, 
      "inputs": []
    }, 
    {
      "op": "elemwise_mul", 
      "name": "deeparpredictionnetwork0_lstm0_t0_mul0", 
      "inputs": [[166, 0, 0], [167, 0, 0]]
    }, 
    {
      "op": "sigmoid", 
      "name": "deeparpredictionnetwork0_lstm0_t0_i", 
      "inputs": [[164, 0, 0]]
    }, 
    {
      "op": "tanh", 
      "name": "deeparpredictionnetwork0_lstm0_t0_c", 
      "inputs": [[164, 2, 0]]
    }, 
    {
      "op": "elemwise_mul", 
      "name": "deeparpredictionnetwork0_lstm0_t0_mul1", 
      "inputs": [[169, 0, 0], [170, 0, 0]]
    }, 
    {
      "op": "elemwise_add", 
      "name": "deeparpredictionnetwork0_lstm0_t0_state", 
      "inputs": [[168, 0, 0], [171, 0, 0]]
    }, 
    {
      "op": "Activation", 
      "name": "deeparpredictionnetwork0_lstm0_t0_activation0", 
      "attrs": {"act_type": "tanh"}, 
      "inputs": [[172, 0, 0]]
    }, 
    {
      "op": "elemwise_mul", 
      "name": "deeparpredictionnetwork0_lstm0_t0_out", 
      "inputs": [[165, 0, 0], [173, 0, 0]]
    }, 
    {
      "op": "ones_like", 
      "name": "deeparpredictionnetwork0_deeparpredictionnetwork0_lstm0_zoneoutones_like0", 
      "inputs": [[174, 0, 0]]
    }, 
    {
      "op": "Dropout", 
      "name": "deeparpredictionnetwork0_deeparpredictionnetwork0_lstm0_zoneoutdropout0", 
      "attrs": {"p": "0.1"}, 
      "inputs": [[175, 0, 0]]
    }, 
    {
      "op": "where", 
      "name": "deeparpredictionnetwork0_deeparpredictionnetwork0_lstm0_zoneoutwhere0", 
      "inputs": [[176, 0, 0], [174, 0, 0], [159, 0, 0]]
    }, 
    {
      "op": "FullyConnected", 
      "name": "deeparpredictionnetwork0_lstm0_t1_h2h", 
      "attrs": {"num_hidden": "160"}, 
      "inputs": [[177, 0, 0], [160, 0, 0], [161, 0, 0]]
    }, 
    {
      "op": "elemwise_add", 
      "name": "deeparpredictionnetwork0_lstm0_t1_plus0", 
      "inputs": [[157, 0, 0], [178, 0, 0]]
    }, 
    {
      "op": "SliceChannel", 
      "name": "deeparpredictionnetwork0_lstm0_t1_slice", 
      "attrs": {"num_outputs": "4"}, 
      "inputs": [[179, 0, 0]]
    }, 
    {
      "op": "sigmoid", 
      "name": "deeparpredictionnetwork0_lstm0_t1_o", 
      "inputs": [[180, 3, 0]]
    }, 
    {
      "op": "sigmoid", 
      "name": "deeparpredictionnetwork0_lstm0_t1_f", 
      "inputs": [[180, 1, 0]]
    }, 
    {
      "op": "ones_like", 
      "name": "deeparpredictionnetwork0_deeparpredictionnetwork0_lstm0_zoneoutones_like1", 
      "inputs": [[172, 0, 0]]
    }, 
    {
      "op": "Dropout", 
      "name": "deeparpredictionnetwork0_deeparpredictionnetwork0_lstm0_zoneoutdropout1", 
      "attrs": {"p": "0.1"}, 
      "inputs": [[183, 0, 0]]
    }, 
    {
      "op": "where", 
      "name": "deeparpredictionnetwork0_deeparpredictionnetwork0_lstm0_zoneoutwhere1", 
      "inputs": [[184, 0, 0], [172, 0, 0], [167, 0, 0]]
    }, 
    {
      "op": "elemwise_mul", 
      "name": "deeparpredictionnetwork0_lstm0_t1_mul0", 
      "inputs": [[182, 0, 0], [185, 0, 0]]
    }, 
    {
      "op": "sigmoid", 
      "name": "deeparpredictionnetwork0_lstm0_t1_i", 
      "inputs": [[180, 0, 0]]
    }, 
    {
      "op": "tanh", 
      "name": "deeparpredictionnetwork0_lstm0_t1_c", 
      "inputs": [[180, 2, 0]]
    }, 
    {
      "op": "elemwise_mul", 
      "name": "deeparpredictionnetwork0_lstm0_t1_mul1", 
      "inputs": [[187, 0, 0], [188, 0, 0]]
    }, 
    {
      "op": "elemwise_add", 
      "name": "deeparpredictionnetwork0_lstm0_t1_state", 
      "inputs": [[186, 0, 0], [189, 0, 0]]
    }, 
    {
      "op": "Activation", 
      "name": "deeparpredictionnetwork0_lstm0_t1_activation0", 
      "attrs": {"act_type": "tanh"}, 
      "inputs": [[190, 0, 0]]
    }, 
    {
      "op": "elemwise_mul", 
      "name": "deeparpredictionnetwork0_lstm0_t1_out", 
      "inputs": [[181, 0, 0], [191, 0, 0]]
    }, 
    {
      "op": "ones_like", 
      "name": "deeparpredictionnetwork0_deeparpredictionnetwork0_lstm0_zoneoutones_like0", 
      "inputs": [[192, 0, 0]]
    }, 
    {
      "op": "Dropout", 
      "name": "deeparpredictionnetwork0_deeparpredictionnetwork0_lstm0_zoneoutdropout0", 
      "attrs": {"p": "0.1"}, 
      "inputs": [[193, 0, 0]]
    }, 
    {
      "op": "where", 
      "name": "deeparpredictionnetwork0_deeparpredictionnetwork0_lstm0_zoneoutwhere0", 
      "inputs": [[194, 0, 0], [192, 0, 0], [177, 0, 0]]
    }, 
    {
      "op": "FullyConnected", 
      "name": "deeparpredictionnetwork0_lstm0_t2_h2h", 
      "attrs": {"num_hidden": "160"}, 
      "inputs": [[195, 0, 0], [160, 0, 0], [161, 0, 0]]
    }, 
    {
      "op": "elemwise_add", 
      "name": "deeparpredictionnetwork0_lstm0_t2_plus0", 
      "inputs": [[156, 0, 0], [196, 0, 0]]
    }, 
    {
      "op": "SliceChannel", 
      "name": "deeparpredictionnetwork0_lstm0_t2_slice", 
      "attrs": {"num_outputs": "4"}, 
      "inputs": [[197, 0, 0]]
    }, 
    {
      "op": "sigmoid", 
      "name": "deeparpredictionnetwork0_lstm0_t2_o", 
      "inputs": [[198, 3, 0]]
    }, 
    {
      "op": "sigmoid", 
      "name": "deeparpredictionnetwork0_lstm0_t2_f", 
      "inputs": [[198, 1, 0]]
    }, 
    {
      "op": "ones_like", 
      "name": "deeparpredictionnetwork0_deeparpredictionnetwork0_lstm0_zoneoutones_like1", 
      "inputs": [[190, 0, 0]]
    }, 
    {
      "op": "Dropout", 
      "name": "deeparpredictionnetwork0_deeparpredictionnetwork0_lstm0_zoneoutdropout1", 
      "attrs": {"p": "0.1"}, 
      "inputs": [[201, 0, 0]]
    }, 
    {
      "op": "where", 
      "name": "deeparpredictionnetwork0_deeparpredictionnetwork0_lstm0_zoneoutwhere1", 
      "inputs": [[202, 0, 0], [190, 0, 0], [185, 0, 0]]
    }, 
    {
      "op": "elemwise_mul", 
      "name": "deeparpredictionnetwork0_lstm0_t2_mul0", 
      "inputs": [[200, 0, 0], [203, 0, 0]]
    }, 
    {
      "op": "sigmoid", 
      "name": "deeparpredictionnetwork0_lstm0_t2_i", 
      "inputs": [[198, 0, 0]]
    }, 
    {
      "op": "tanh", 
      "name": "deeparpredictionnetwork0_lstm0_t2_c", 
      "inputs": [[198, 2, 0]]
    }, 
    {
      "op": "elemwise_mul", 
      "name": "deeparpredictionnetwork0_lstm0_t2_mul1", 
      "inputs": [[205, 0, 0], [206, 0, 0]]
    }, 
    {
      "op": "elemwise_add", 
      "name": "deeparpredictionnetwork0_lstm0_t2_state", 
      "inputs": [[204, 0, 0], [207, 0, 0]]
    }, 
    {
      "op": "Activation", 
      "name": "deeparpredictionnetwork0_lstm0_t2_activation0", 
      "attrs": {"act_type": "tanh"}, 
      "inputs": [[208, 0, 0]]
    }, 
    {
      "op": "elemwise_mul", 
      "name": "deeparpredictionnetwork0_lstm0_t2_out", 
      "inputs": [[199, 0, 0], [209, 0, 0]]
    }, 
    {
      "op": "ones_like", 
      "name": "deeparpredictionnetwork0_deeparpredictionnetwork0_lstm0_zoneoutones_like0", 
      "inputs": [[210, 0, 0]]
    }, 
    {
      "op": "Dropout", 
      "name": "deeparpredictionnetwork0_deeparpredictionnetwork0_lstm0_zoneoutdropout0", 
      "attrs": {"p": "0.1"}, 
      "inputs": [[211, 0, 0]]
    }, 
    {
      "op": "where", 
      "name": "deeparpredictionnetwork0_deeparpredictionnetwork0_lstm0_zoneoutwhere0", 
      "inputs": [[212, 0, 0], [210, 0, 0], [195, 0, 0]]
    }, 
    {
      "op": "FullyConnected", 
      "name": "deeparpredictionnetwork0_lstm0_t3_h2h", 
      "attrs": {"num_hidden": "160"}, 
      "inputs": [[213, 0, 0], [160, 0, 0], [161, 0, 0]]
    }, 
    {
      "op": "elemwise_add", 
      "name": "deeparpredictionnetwork0_lstm0_t3_plus0", 
      "inputs": [[155, 0, 0], [214, 0, 0]]
    }, 
    {
      "op": "SliceChannel", 
      "name": "deeparpredictionnetwork0_lstm0_t3_slice", 
      "attrs": {"num_outputs": "4"}, 
      "inputs": [[215, 0, 0]]
    }, 
    {
      "op": "sigmoid", 
      "name": "deeparpredictionnetwork0_lstm0_t3_o", 
      "inputs": [[216, 3, 0]]
    }, 
    {
      "op": "sigmoid", 
      "name": "deeparpredictionnetwork0_lstm0_t3_f", 
      "inputs": [[216, 1, 0]]
    }, 
    {
      "op": "ones_like", 
      "name": "deeparpredictionnetwork0_deeparpredictionnetwork0_lstm0_zoneoutones_like1", 
      "inputs": [[208, 0, 0]]
    }, 
    {
      "op": "Dropout", 
      "name": "deeparpredictionnetwork0_deeparpredictionnetwork0_lstm0_zoneoutdropout1", 
      "attrs": {"p": "0.1"}, 
      "inputs": [[219, 0, 0]]
    }, 
    {
      "op": "where", 
      "name": "deeparpredictionnetwork0_deeparpredictionnetwork0_lstm0_zoneoutwhere1", 
      "inputs": [[220, 0, 0], [208, 0, 0], [203, 0, 0]]
    }, 
    {
      "op": "elemwise_mul", 
      "name": "deeparpredictionnetwork0_lstm0_t3_mul0", 
      "inputs": [[218, 0, 0], [221, 0, 0]]
    }, 
    {
      "op": "sigmoid", 
      "name": "deeparpredictionnetwork0_lstm0_t3_i", 
      "inputs": [[216, 0, 0]]
    }, 
    {
      "op": "tanh", 
      "name": "deeparpredictionnetwork0_lstm0_t3_c", 
      "inputs": [[216, 2, 0]]
    }, 
    {
      "op": "elemwise_mul", 
      "name": "deeparpredictionnetwork0_lstm0_t3_mul1", 
      "inputs": [[223, 0, 0], [224, 0, 0]]
    }, 
    {
      "op": "elemwise_add", 
      "name": "deeparpredictionnetwork0_lstm0_t3_state", 
      "inputs": [[222, 0, 0], [225, 0, 0]]
    }, 
    {
      "op": "Activation", 
      "name": "deeparpredictionnetwork0_lstm0_t3_activation0", 
      "attrs": {"act_type": "tanh"}, 
      "inputs": [[226, 0, 0]]
    }, 
    {
      "op": "elemwise_mul", 
      "name": "deeparpredictionnetwork0_lstm0_t3_out", 
      "inputs": [[217, 0, 0], [227, 0, 0]]
    }, 
    {
      "op": "ones_like", 
      "name": "deeparpredictionnetwork0_deeparpredictionnetwork0_lstm0_zoneoutones_like0", 
      "inputs": [[228, 0, 0]]
    }, 
    {
      "op": "Dropout", 
      "name": "deeparpredictionnetwork0_deeparpredictionnetwork0_lstm0_zoneoutdropout0", 
      "attrs": {"p": "0.1"}, 
      "inputs": [[229, 0, 0]]
    }, 
    {
      "op": "where", 
      "name": "deeparpredictionnetwork0_deeparpredictionnetwork0_lstm0_zoneoutwhere0", 
      "inputs": [[230, 0, 0], [228, 0, 0], [213, 0, 0]]
    }, 
    {
      "op": "FullyConnected", 
      "name": "deeparpredictionnetwork0_lstm0_t4_h2h", 
      "attrs": {"num_hidden": "160"}, 
      "inputs": [[231, 0, 0], [160, 0, 0], [161, 0, 0]]
    }, 
    {
      "op": "elemwise_add", 
      "name": "deeparpredictionnetwork0_lstm0_t4_plus0", 
      "inputs": [[154, 0, 0], [232, 0, 0]]
    }, 
    {
      "op": "SliceChannel", 
      "name": "deeparpredictionnetwork0_lstm0_t4_slice", 
      "attrs": {"num_outputs": "4"}, 
      "inputs": [[233, 0, 0]]
    }, 
    {
      "op": "sigmoid", 
      "name": "deeparpredictionnetwork0_lstm0_t4_o", 
      "inputs": [[234, 3, 0]]
    }, 
    {
      "op": "sigmoid", 
      "name": "deeparpredictionnetwork0_lstm0_t4_f", 
      "inputs": [[234, 1, 0]]
    }, 
    {
      "op": "ones_like", 
      "name": "deeparpredictionnetwork0_deeparpredictionnetwork0_lstm0_zoneoutones_like1", 
      "inputs": [[226, 0, 0]]
    }, 
    {
      "op": "Dropout", 
      "name": "deeparpredictionnetwork0_deeparpredictionnetwork0_lstm0_zoneoutdropout1", 
      "attrs": {"p": "0.1"}, 
      "inputs": [[237, 0, 0]]
    }, 
    {
      "op": "where", 
      "name": "deeparpredictionnetwork0_deeparpredictionnetwork0_lstm0_zoneoutwhere1", 
      "inputs": [[238, 0, 0], [226, 0, 0], [221, 0, 0]]
    }, 
    {
      "op": "elemwise_mul", 
      "name": "deeparpredictionnetwork0_lstm0_t4_mul0", 
      "inputs": [[236, 0, 0], [239, 0, 0]]
    }, 
    {
      "op": "sigmoid", 
      "name": "deeparpredictionnetwork0_lstm0_t4_i", 
      "inputs": [[234, 0, 0]]
    }, 
    {
      "op": "tanh", 
      "name": "deeparpredictionnetwork0_lstm0_t4_c", 
      "inputs": [[234, 2, 0]]
    }, 
    {
      "op": "elemwise_mul", 
      "name": "deeparpredictionnetwork0_lstm0_t4_mul1", 
      "inputs": [[241, 0, 0], [242, 0, 0]]
    }, 
    {
      "op": "elemwise_add", 
      "name": "deeparpredictionnetwork0_lstm0_t4_state", 
      "inputs": [[240, 0, 0], [243, 0, 0]]
    }, 
    {
      "op": "Activation", 
      "name": "deeparpredictionnetwork0_lstm0_t4_activation0", 
      "attrs": {"act_type": "tanh"}, 
      "inputs": [[244, 0, 0]]
    }, 
    {
      "op": "elemwise_mul", 
      "name": "deeparpredictionnetwork0_lstm0_t4_out", 
      "inputs": [[235, 0, 0], [245, 0, 0]]
    }, 
    {
      "op": "ones_like", 
      "name": "deeparpredictionnetwork0_deeparpredictionnetwork0_lstm0_zoneoutones_like0", 
      "inputs": [[246, 0, 0]]
    }, 
    {
      "op": "Dropout", 
      "name": "deeparpredictionnetwork0_deeparpredictionnetwork0_lstm0_zoneoutdropout0", 
      "attrs": {"p": "0.1"}, 
      "inputs": [[247, 0, 0]]
    }, 
    {
      "op": "where", 
      "name": "deeparpredictionnetwork0_deeparpredictionnetwork0_lstm0_zoneoutwhere0", 
      "inputs": [[248, 0, 0], [246, 0, 0], [231, 0, 0]]
    }, 
    {
      "op": "FullyConnected", 
      "name": "deeparpredictionnetwork0_lstm0_t5_h2h", 
      "attrs": {"num_hidden": "160"}, 
      "inputs": [[249, 0, 0], [160, 0, 0], [161, 0, 0]]
    }, 
    {
      "op": "elemwise_add", 
      "name": "deeparpredictionnetwork0_lstm0_t5_plus0", 
      "inputs": [[153, 0, 0], [250, 0, 0]]
    }, 
    {
      "op": "SliceChannel", 
      "name": "deeparpredictionnetwork0_lstm0_t5_slice", 
      "attrs": {"num_outputs": "4"}, 
      "inputs": [[251, 0, 0]]
    }, 
    {
      "op": "sigmoid", 
      "name": "deeparpredictionnetwork0_lstm0_t5_o", 
      "inputs": [[252, 3, 0]]
    }, 
    {
      "op": "sigmoid", 
      "name": "deeparpredictionnetwork0_lstm0_t5_f", 
      "inputs": [[252, 1, 0]]
    }, 
    {
      "op": "ones_like", 
      "name": "deeparpredictionnetwork0_deeparpredictionnetwork0_lstm0_zoneoutones_like1", 
      "inputs": [[244, 0, 0]]
    }, 
    {
      "op": "Dropout", 
      "name": "deeparpredictionnetwork0_deeparpredictionnetwork0_lstm0_zoneoutdropout1", 
      "attrs": {"p": "0.1"}, 
      "inputs": [[255, 0, 0]]
    }, 
    {
      "op": "where", 
      "name": "deeparpredictionnetwork0_deeparpredictionnetwork0_lstm0_zoneoutwhere1", 
      "inputs": [[256, 0, 0], [244, 0, 0], [239, 0, 0]]
    }, 
    {
      "op": "elemwise_mul", 
      "name": "deeparpredictionnetwork0_lstm0_t5_mul0", 
      "inputs": [[254, 0, 0], [257, 0, 0]]
    }, 
    {
      "op": "sigmoid", 
      "name": "deeparpredictionnetwork0_lstm0_t5_i", 
      "inputs": [[252, 0, 0]]
    }, 
    {
      "op": "tanh", 
      "name": "deeparpredictionnetwork0_lstm0_t5_c", 
      "inputs": [[252, 2, 0]]
    }, 
    {
      "op": "elemwise_mul", 
      "name": "deeparpredictionnetwork0_lstm0_t5_mul1", 
      "inputs": [[259, 0, 0], [260, 0, 0]]
    }, 
    {
      "op": "elemwise_add", 
      "name": "deeparpredictionnetwork0_lstm0_t5_state", 
      "inputs": [[258, 0, 0], [261, 0, 0]]
    }, 
    {
      "op": "Activation", 
      "name": "deeparpredictionnetwork0_lstm0_t5_activation0", 
      "attrs": {"act_type": "tanh"}, 
      "inputs": [[262, 0, 0]]
    }, 
    {
      "op": "elemwise_mul", 
      "name": "deeparpredictionnetwork0_lstm0_t5_out", 
      "inputs": [[253, 0, 0], [263, 0, 0]]
    }, 
    {
      "op": "ones_like", 
      "name": "deeparpredictionnetwork0_deeparpredictionnetwork0_lstm0_zoneoutones_like0", 
      "inputs": [[264, 0, 0]]
    }, 
    {
      "op": "Dropout", 
      "name": "deeparpredictionnetwork0_deeparpredictionnetwork0_lstm0_zoneoutdropout0", 
      "attrs": {"p": "0.1"}, 
      "inputs": [[265, 0, 0]]
    }, 
    {
      "op": "where", 
      "name": "deeparpredictionnetwork0_deeparpredictionnetwork0_lstm0_zoneoutwhere0", 
      "inputs": [[266, 0, 0], [264, 0, 0], [249, 0, 0]]
    }, 
    {
      "op": "FullyConnected", 
      "name": "deeparpredictionnetwork0_lstm0_t6_h2h", 
      "attrs": {"num_hidden": "160"}, 
      "inputs": [[267, 0, 0], [160, 0, 0], [161, 0, 0]]
    }, 
    {
      "op": "elemwise_add", 
      "name": "deeparpredictionnetwork0_lstm0_t6_plus0", 
      "inputs": [[152, 0, 0], [268, 0, 0]]
    }, 
    {
      "op": "SliceChannel", 
      "name": "deeparpredictionnetwork0_lstm0_t6_slice", 
      "attrs": {"num_outputs": "4"}, 
      "inputs": [[269, 0, 0]]
    }, 
    {
      "op": "sigmoid", 
      "name": "deeparpredictionnetwork0_lstm0_t6_o", 
      "inputs": [[270, 3, 0]]
    }, 
    {
      "op": "sigmoid", 
      "name": "deeparpredictionnetwork0_lstm0_t6_f", 
      "inputs": [[270, 1, 0]]
    }, 
    {
      "op": "ones_like", 
      "name": "deeparpredictionnetwork0_deeparpredictionnetwork0_lstm0_zoneoutones_like1", 
      "inputs": [[262, 0, 0]]
    }, 
    {
      "op": "Dropout", 
      "name": "deeparpredictionnetwork0_deeparpredictionnetwork0_lstm0_zoneoutdropout1", 
      "attrs": {"p": "0.1"}, 
      "inputs": [[273, 0, 0]]
    }, 
    {
      "op": "where", 
      "name": "deeparpredictionnetwork0_deeparpredictionnetwork0_lstm0_zoneoutwhere1", 
      "inputs": [[274, 0, 0], [262, 0, 0], [257, 0, 0]]
    }, 
    {
      "op": "elemwise_mul", 
      "name": "deeparpredictionnetwork0_lstm0_t6_mul0", 
      "inputs": [[272, 0, 0], [275, 0, 0]]
    }, 
    {
      "op": "sigmoid", 
      "name": "deeparpredictionnetwork0_lstm0_t6_i", 
      "inputs": [[270, 0, 0]]
    }, 
    {
      "op": "tanh", 
      "name": "deeparpredictionnetwork0_lstm0_t6_c", 
      "inputs": [[270, 2, 0]]
    }, 
    {
      "op": "elemwise_mul", 
      "name": "deeparpredictionnetwork0_lstm0_t6_mul1", 
      "inputs": [[277, 0, 0], [278, 0, 0]]
    }, 
    {
      "op": "elemwise_add", 
      "name": "deeparpredictionnetwork0_lstm0_t6_state", 
      "inputs": [[276, 0, 0], [279, 0, 0]]
    }, 
    {
      "op": "Activation", 
      "name": "deeparpredictionnetwork0_lstm0_t6_activation0", 
      "attrs": {"act_type": "tanh"}, 
      "inputs": [[280, 0, 0]]
    }, 
    {
      "op": "elemwise_mul", 
      "name": "deeparpredictionnetwork0_lstm0_t6_out", 
      "inputs": [[271, 0, 0], [281, 0, 0]]
    }, 
    {
      "op": "ones_like", 
      "name": "deeparpredictionnetwork0_deeparpredictionnetwork0_lstm0_zoneoutones_like0", 
      "inputs": [[282, 0, 0]]
    }, 
    {
      "op": "Dropout", 
      "name": "deeparpredictionnetwork0_deeparpredictionnetwork0_lstm0_zoneoutdropout0", 
      "attrs": {"p": "0.1"}, 
      "inputs": [[283, 0, 0]]
    }, 
    {
      "op": "where", 
      "name": "deeparpredictionnetwork0_deeparpredictionnetwork0_lstm0_zoneoutwhere0", 
      "inputs": [[284, 0, 0], [282, 0, 0], [267, 0, 0]]
    }, 
    {
      "op": "FullyConnected", 
      "name": "deeparpredictionnetwork0_lstm0_t7_h2h", 
      "attrs": {"num_hidden": "160"}, 
      "inputs": [[285, 0, 0], [160, 0, 0], [161, 0, 0]]
    }, 
    {
      "op": "elemwise_add", 
      "name": "deeparpredictionnetwork0_lstm0_t7_plus0", 
      "inputs": [[151, 0, 0], [286, 0, 0]]
    }, 
    {
      "op": "SliceChannel", 
      "name": "deeparpredictionnetwork0_lstm0_t7_slice", 
      "attrs": {"num_outputs": "4"}, 
      "inputs": [[287, 0, 0]]
    }, 
    {
      "op": "sigmoid", 
      "name": "deeparpredictionnetwork0_lstm0_t7_o", 
      "inputs": [[288, 3, 0]]
    }, 
    {
      "op": "sigmoid", 
      "name": "deeparpredictionnetwork0_lstm0_t7_f", 
      "inputs": [[288, 1, 0]]
    }, 
    {
      "op": "ones_like", 
      "name": "deeparpredictionnetwork0_deeparpredictionnetwork0_lstm0_zoneoutones_like1", 
      "inputs": [[280, 0, 0]]
    }, 
    {
      "op": "Dropout", 
      "name": "deeparpredictionnetwork0_deeparpredictionnetwork0_lstm0_zoneoutdropout1", 
      "attrs": {"p": "0.1"}, 
      "inputs": [[291, 0, 0]]
    }, 
    {
      "op": "where", 
      "name": "deeparpredictionnetwork0_deeparpredictionnetwork0_lstm0_zoneoutwhere1", 
      "inputs": [[292, 0, 0], [280, 0, 0], [275, 0, 0]]
    }, 
    {
      "op": "elemwise_mul", 
      "name": "deeparpredictionnetwork0_lstm0_t7_mul0", 
      "inputs": [[290, 0, 0], [293, 0, 0]]
    }, 
    {
      "op": "sigmoid", 
      "name": "deeparpredictionnetwork0_lstm0_t7_i", 
      "inputs": [[288, 0, 0]]
    }, 
    {
      "op": "tanh", 
      "name": "deeparpredictionnetwork0_lstm0_t7_c", 
      "inputs": [[288, 2, 0]]
    }, 
    {
      "op": "elemwise_mul", 
      "name": "deeparpredictionnetwork0_lstm0_t7_mul1", 
      "inputs": [[295, 0, 0], [296, 0, 0]]
    }, 
    {
      "op": "elemwise_add", 
      "name": "deeparpredictionnetwork0_lstm0_t7_state", 
      "inputs": [[294, 0, 0], [297, 0, 0]]
    }, 
    {
      "op": "Activation", 
      "name": "deeparpredictionnetwork0_lstm0_t7_activation0", 
      "attrs": {"act_type": "tanh"}, 
      "inputs": [[298, 0, 0]]
    }, 
    {
      "op": "elemwise_mul", 
      "name": "deeparpredictionnetwork0_lstm0_t7_out", 
      "inputs": [[289, 0, 0], [299, 0, 0]]
    }, 
    {
      "op": "ones_like", 
      "name": "deeparpredictionnetwork0_deeparpredictionnetwork0_lstm0_zoneoutones_like0", 
      "inputs": [[300, 0, 0]]
    }, 
    {
      "op": "Dropout", 
      "name": "deeparpredictionnetwork0_deeparpredictionnetwork0_lstm0_zoneoutdropout0", 
      "attrs": {"p": "0.1"}, 
      "inputs": [[301, 0, 0]]
    }, 
    {
      "op": "where", 
      "name": "deeparpredictionnetwork0_deeparpredictionnetwork0_lstm0_zoneoutwhere0", 
      "inputs": [[302, 0, 0], [300, 0, 0], [285, 0, 0]]
    }, 
    {
      "op": "FullyConnected", 
      "name": "deeparpredictionnetwork0_lstm0_t8_h2h", 
      "attrs": {"num_hidden": "160"}, 
      "inputs": [[303, 0, 0], [160, 0, 0], [161, 0, 0]]
    }, 
    {
      "op": "elemwise_add", 
      "name": "deeparpredictionnetwork0_lstm0_t8_plus0", 
      "inputs": [[150, 0, 0], [304, 0, 0]]
    }, 
    {
      "op": "SliceChannel", 
      "name": "deeparpredictionnetwork0_lstm0_t8_slice", 
      "attrs": {"num_outputs": "4"}, 
      "inputs": [[305, 0, 0]]
    }, 
    {
      "op": "sigmoid", 
      "name": "deeparpredictionnetwork0_lstm0_t8_o", 
      "inputs": [[306, 3, 0]]
    }, 
    {
      "op": "sigmoid", 
      "name": "deeparpredictionnetwork0_lstm0_t8_f", 
      "inputs": [[306, 1, 0]]
    }, 
    {
      "op": "ones_like", 
      "name": "deeparpredictionnetwork0_deeparpredictionnetwork0_lstm0_zoneoutones_like1", 
      "inputs": [[298, 0, 0]]
    }, 
    {
      "op": "Dropout", 
      "name": "deeparpredictionnetwork0_deeparpredictionnetwork0_lstm0_zoneoutdropout1", 
      "attrs": {"p": "0.1"}, 
      "inputs": [[309, 0, 0]]
    }, 
    {
      "op": "where", 
      "name": "deeparpredictionnetwork0_deeparpredictionnetwork0_lstm0_zoneoutwhere1", 
      "inputs": [[310, 0, 0], [298, 0, 0], [293, 0, 0]]
    }, 
    {
      "op": "elemwise_mul", 
      "name": "deeparpredictionnetwork0_lstm0_t8_mul0", 
      "inputs": [[308, 0, 0], [311, 0, 0]]
    }, 
    {
      "op": "sigmoid", 
      "name": "deeparpredictionnetwork0_lstm0_t8_i", 
      "inputs": [[306, 0, 0]]
    }, 
    {
      "op": "tanh", 
      "name": "deeparpredictionnetwork0_lstm0_t8_c", 
      "inputs": [[306, 2, 0]]
    }, 
    {
      "op": "elemwise_mul", 
      "name": "deeparpredictionnetwork0_lstm0_t8_mul1", 
      "inputs": [[313, 0, 0], [314, 0, 0]]
    }, 
    {
      "op": "elemwise_add", 
      "name": "deeparpredictionnetwork0_lstm0_t8_state", 
      "inputs": [[312, 0, 0], [315, 0, 0]]
    }, 
    {
      "op": "Activation", 
      "name": "deeparpredictionnetwork0_lstm0_t8_activation0", 
      "attrs": {"act_type": "tanh"}, 
      "inputs": [[316, 0, 0]]
    }, 
    {
      "op": "elemwise_mul", 
      "name": "deeparpredictionnetwork0_lstm0_t8_out", 
      "inputs": [[307, 0, 0], [317, 0, 0]]
    }, 
    {
      "op": "ones_like", 
      "name": "deeparpredictionnetwork0_deeparpredictionnetwork0_lstm0_zoneoutones_like0", 
      "inputs": [[318, 0, 0]]
    }, 
    {
      "op": "Dropout", 
      "name": "deeparpredictionnetwork0_deeparpredictionnetwork0_lstm0_zoneoutdropout0", 
      "attrs": {"p": "0.1"}, 
      "inputs": [[319, 0, 0]]
    }, 
    {
      "op": "where", 
      "name": "deeparpredictionnetwork0_deeparpredictionnetwork0_lstm0_zoneoutwhere0", 
      "inputs": [[320, 0, 0], [318, 0, 0], [303, 0, 0]]
    }, 
    {
      "op": "FullyConnected", 
      "name": "deeparpredictionnetwork0_lstm0_t9_h2h", 
      "attrs": {"num_hidden": "160"}, 
      "inputs": [[321, 0, 0], [160, 0, 0], [161, 0, 0]]
    }, 
    {
      "op": "elemwise_add", 
      "name": "deeparpredictionnetwork0_lstm0_t9_plus0", 
      "inputs": [[149, 0, 0], [322, 0, 0]]
    }, 
    {
      "op": "SliceChannel", 
      "name": "deeparpredictionnetwork0_lstm0_t9_slice", 
      "attrs": {"num_outputs": "4"}, 
      "inputs": [[323, 0, 0]]
    }, 
    {
      "op": "sigmoid", 
      "name": "deeparpredictionnetwork0_lstm0_t9_o", 
      "inputs": [[324, 3, 0]]
    }, 
    {
      "op": "sigmoid", 
      "name": "deeparpredictionnetwork0_lstm0_t9_f", 
      "inputs": [[324, 1, 0]]
    }, 
    {
      "op": "ones_like", 
      "name": "deeparpredictionnetwork0_deeparpredictionnetwork0_lstm0_zoneoutones_like1", 
      "inputs": [[316, 0, 0]]
    }, 
    {
      "op": "Dropout", 
      "name": "deeparpredictionnetwork0_deeparpredictionnetwork0_lstm0_zoneoutdropout1", 
      "attrs": {"p": "0.1"}, 
      "inputs": [[327, 0, 0]]
    }, 
    {
      "op": "where", 
      "name": "deeparpredictionnetwork0_deeparpredictionnetwork0_lstm0_zoneoutwhere1", 
      "inputs": [[328, 0, 0], [316, 0, 0], [311, 0, 0]]
    }, 
    {
      "op": "elemwise_mul", 
      "name": "deeparpredictionnetwork0_lstm0_t9_mul0", 
      "inputs": [[326, 0, 0], [329, 0, 0]]
    }, 
    {
      "op": "sigmoid", 
      "name": "deeparpredictionnetwork0_lstm0_t9_i", 
      "inputs": [[324, 0, 0]]
    }, 
    {
      "op": "tanh", 
      "name": "deeparpredictionnetwork0_lstm0_t9_c", 
      "inputs": [[324, 2, 0]]
    }, 
    {
      "op": "elemwise_mul", 
      "name": "deeparpredictionnetwork0_lstm0_t9_mul1", 
      "inputs": [[331, 0, 0], [332, 0, 0]]
    }, 
    {
      "op": "elemwise_add", 
      "name": "deeparpredictionnetwork0_lstm0_t9_state", 
      "inputs": [[330, 0, 0], [333, 0, 0]]
    }, 
    {
      "op": "Activation", 
      "name": "deeparpredictionnetwork0_lstm0_t9_activation0", 
      "attrs": {"act_type": "tanh"}, 
      "inputs": [[334, 0, 0]]
    }, 
    {
      "op": "elemwise_mul", 
      "name": "deeparpredictionnetwork0_lstm0_t9_out", 
      "inputs": [[325, 0, 0], [335, 0, 0]]
    }, 
    {
      "op": "ones_like", 
      "name": "deeparpredictionnetwork0_deeparpredictionnetwork0_lstm0_zoneoutones_like0", 
      "inputs": [[336, 0, 0]]
    }, 
    {
      "op": "Dropout", 
      "name": "deeparpredictionnetwork0_deeparpredictionnetwork0_lstm0_zoneoutdropout0", 
      "attrs": {"p": "0.1"}, 
      "inputs": [[337, 0, 0]]
    }, 
    {
      "op": "where", 
      "name": "deeparpredictionnetwork0_deeparpredictionnetwork0_lstm0_zoneoutwhere0", 
      "inputs": [[338, 0, 0], [336, 0, 0], [321, 0, 0]]
    }, 
    {
      "op": "FullyConnected", 
      "name": "deeparpredictionnetwork0_lstm0_t10_h2h", 
      "attrs": {"num_hidden": "160"}, 
      "inputs": [[339, 0, 0], [160, 0, 0], [161, 0, 0]]
    }, 
    {
      "op": "elemwise_add", 
      "name": "deeparpredictionnetwork0_lstm0_t10_plus0", 
      "inputs": [[148, 0, 0], [340, 0, 0]]
    }, 
    {
      "op": "SliceChannel", 
      "name": "deeparpredictionnetwork0_lstm0_t10_slice", 
      "attrs": {"num_outputs": "4"}, 
      "inputs": [[341, 0, 0]]
    }, 
    {
      "op": "sigmoid", 
      "name": "deeparpredictionnetwork0_lstm0_t10_o", 
      "inputs": [[342, 3, 0]]
    }, 
    {
      "op": "sigmoid", 
      "name": "deeparpredictionnetwork0_lstm0_t10_f", 
      "inputs": [[342, 1, 0]]
    }, 
    {
      "op": "ones_like", 
      "name": "deeparpredictionnetwork0_deeparpredictionnetwork0_lstm0_zoneoutones_like1", 
      "inputs": [[334, 0, 0]]
    }, 
    {
      "op": "Dropout", 
      "name": "deeparpredictionnetwork0_deeparpredictionnetwork0_lstm0_zoneoutdropout1", 
      "attrs": {"p": "0.1"}, 
      "inputs": [[345, 0, 0]]
    }, 
    {
      "op": "where", 
      "name": "deeparpredictionnetwork0_deeparpredictionnetwork0_lstm0_zoneoutwhere1", 
      "inputs": [[346, 0, 0], [334, 0, 0], [329, 0, 0]]
    }, 
    {
      "op": "elemwise_mul", 
      "name": "deeparpredictionnetwork0_lstm0_t10_mul0", 
      "inputs": [[344, 0, 0], [347, 0, 0]]
    }, 
    {
      "op": "sigmoid", 
      "name": "deeparpredictionnetwork0_lstm0_t10_i", 
      "inputs": [[342, 0, 0]]
    }, 
    {
      "op": "tanh", 
      "name": "deeparpredictionnetwork0_lstm0_t10_c", 
      "inputs": [[342, 2, 0]]
    }, 
    {
      "op": "elemwise_mul", 
      "name": "deeparpredictionnetwork0_lstm0_t10_mul1", 
      "inputs": [[349, 0, 0], [350, 0, 0]]
    }, 
    {
      "op": "elemwise_add", 
      "name": "deeparpredictionnetwork0_lstm0_t10_state", 
      "inputs": [[348, 0, 0], [351, 0, 0]]
    }, 
    {
      "op": "Activation", 
      "name": "deeparpredictionnetwork0_lstm0_t10_activation0", 
      "attrs": {"act_type": "tanh"}, 
      "inputs": [[352, 0, 0]]
    }, 
    {
      "op": "elemwise_mul", 
      "name": "deeparpredictionnetwork0_lstm0_t10_out", 
      "inputs": [[343, 0, 0], [353, 0, 0]]
    }, 
    {
      "op": "ones_like", 
      "name": "deeparpredictionnetwork0_deeparpredictionnetwork0_lstm0_zoneoutones_like0", 
      "inputs": [[354, 0, 0]]
    }, 
    {
      "op": "Dropout", 
      "name": "deeparpredictionnetwork0_deeparpredictionnetwork0_lstm0_zoneoutdropout0", 
      "attrs": {"p": "0.1"}, 
      "inputs": [[355, 0, 0]]
    }, 
    {
      "op": "where", 
      "name": "deeparpredictionnetwork0_deeparpredictionnetwork0_lstm0_zoneoutwhere0", 
      "inputs": [[356, 0, 0], [354, 0, 0], [339, 0, 0]]
    }, 
    {
      "op": "FullyConnected", 
      "name": "deeparpredictionnetwork0_lstm0_t11_h2h", 
      "attrs": {"num_hidden": "160"}, 
      "inputs": [[357, 0, 0], [160, 0, 0], [161, 0, 0]]
    }, 
    {
      "op": "elemwise_add", 
      "name": "deeparpredictionnetwork0_lstm0_t11_plus0", 
      "inputs": [[147, 0, 0], [358, 0, 0]]
    }, 
    {
      "op": "SliceChannel", 
      "name": "deeparpredictionnetwork0_lstm0_t11_slice", 
      "attrs": {"num_outputs": "4"}, 
      "inputs": [[359, 0, 0]]
    }, 
    {
      "op": "sigmoid", 
      "name": "deeparpredictionnetwork0_lstm0_t11_o", 
      "inputs": [[360, 3, 0]]
    }, 
    {
      "op": "sigmoid", 
      "name": "deeparpredictionnetwork0_lstm0_t11_f", 
      "inputs": [[360, 1, 0]]
    }, 
    {
      "op": "ones_like", 
      "name": "deeparpredictionnetwork0_deeparpredictionnetwork0_lstm0_zoneoutones_like1", 
      "inputs": [[352, 0, 0]]
    }, 
    {
      "op": "Dropout", 
      "name": "deeparpredictionnetwork0_deeparpredictionnetwork0_lstm0_zoneoutdropout1", 
      "attrs": {"p": "0.1"}, 
      "inputs": [[363, 0, 0]]
    }, 
    {
      "op": "where", 
      "name": "deeparpredictionnetwork0_deeparpredictionnetwork0_lstm0_zoneoutwhere1", 
      "inputs": [[364, 0, 0], [352, 0, 0], [347, 0, 0]]
    }, 
    {
      "op": "elemwise_mul", 
      "name": "deeparpredictionnetwork0_lstm0_t11_mul0", 
      "inputs": [[362, 0, 0], [365, 0, 0]]
    }, 
    {
      "op": "sigmoid", 
      "name": "deeparpredictionnetwork0_lstm0_t11_i", 
      "inputs": [[360, 0, 0]]
    }, 
    {
      "op": "tanh", 
      "name": "deeparpredictionnetwork0_lstm0_t11_c", 
      "inputs": [[360, 2, 0]]
    }, 
    {
      "op": "elemwise_mul", 
      "name": "deeparpredictionnetwork0_lstm0_t11_mul1", 
      "inputs": [[367, 0, 0], [368, 0, 0]]
    }, 
    {
      "op": "elemwise_add", 
      "name": "deeparpredictionnetwork0_lstm0_t11_state", 
      "inputs": [[366, 0, 0], [369, 0, 0]]
    }, 
    {
      "op": "Activation", 
      "name": "deeparpredictionnetwork0_lstm0_t11_activation0", 
      "attrs": {"act_type": "tanh"}, 
      "inputs": [[370, 0, 0]]
    }, 
    {
      "op": "elemwise_mul", 
      "name": "deeparpredictionnetwork0_lstm0_t11_out", 
      "inputs": [[361, 0, 0], [371, 0, 0]]
    }, 
    {
      "op": "ones_like", 
      "name": "deeparpredictionnetwork0_deeparpredictionnetwork0_lstm0_zoneoutones_like0", 
      "inputs": [[372, 0, 0]]
    }, 
    {
      "op": "Dropout", 
      "name": "deeparpredictionnetwork0_deeparpredictionnetwork0_lstm0_zoneoutdropout0", 
      "attrs": {"p": "0.1"}, 
      "inputs": [[373, 0, 0]]
    }, 
    {
      "op": "where", 
      "name": "deeparpredictionnetwork0_deeparpredictionnetwork0_lstm0_zoneoutwhere0", 
      "inputs": [[374, 0, 0], [372, 0, 0], [357, 0, 0]]
    }, 
    {
      "op": "FullyConnected", 
      "name": "deeparpredictionnetwork0_lstm0_t12_h2h", 
      "attrs": {"num_hidden": "160"}, 
      "inputs": [[375, 0, 0], [160, 0, 0], [161, 0, 0]]
    }, 
    {
      "op": "elemwise_add", 
      "name": "deeparpredictionnetwork0_lstm0_t12_plus0", 
      "inputs": [[146, 0, 0], [376, 0, 0]]
    }, 
    {
      "op": "SliceChannel", 
      "name": "deeparpredictionnetwork0_lstm0_t12_slice", 
      "attrs": {"num_outputs": "4"}, 
      "inputs": [[377, 0, 0]]
    }, 
    {
      "op": "sigmoid", 
      "name": "deeparpredictionnetwork0_lstm0_t12_o", 
      "inputs": [[378, 3, 0]]
    }, 
    {
      "op": "sigmoid", 
      "name": "deeparpredictionnetwork0_lstm0_t12_f", 
      "inputs": [[378, 1, 0]]
    }, 
    {
      "op": "ones_like", 
      "name": "deeparpredictionnetwork0_deeparpredictionnetwork0_lstm0_zoneoutones_like1", 
      "inputs": [[370, 0, 0]]
    }, 
    {
      "op": "Dropout", 
      "name": "deeparpredictionnetwork0_deeparpredictionnetwork0_lstm0_zoneoutdropout1", 
      "attrs": {"p": "0.1"}, 
      "inputs": [[381, 0, 0]]
    }, 
    {
      "op": "where", 
      "name": "deeparpredictionnetwork0_deeparpredictionnetwork0_lstm0_zoneoutwhere1", 
      "inputs": [[382, 0, 0], [370, 0, 0], [365, 0, 0]]
    }, 
    {
      "op": "elemwise_mul", 
      "name": "deeparpredictionnetwork0_lstm0_t12_mul0", 
      "inputs": [[380, 0, 0], [383, 0, 0]]
    }, 
    {
      "op": "sigmoid", 
      "name": "deeparpredictionnetwork0_lstm0_t12_i", 
      "inputs": [[378, 0, 0]]
    }, 
    {
      "op": "tanh", 
      "name": "deeparpredictionnetwork0_lstm0_t12_c", 
      "inputs": [[378, 2, 0]]
    }, 
    {
      "op": "elemwise_mul", 
      "name": "deeparpredictionnetwork0_lstm0_t12_mul1", 
      "inputs": [[385, 0, 0], [386, 0, 0]]
    }, 
    {
      "op": "elemwise_add", 
      "name": "deeparpredictionnetwork0_lstm0_t12_state", 
      "inputs": [[384, 0, 0], [387, 0, 0]]
    }, 
    {
      "op": "Activation", 
      "name": "deeparpredictionnetwork0_lstm0_t12_activation0", 
      "attrs": {"act_type": "tanh"}, 
      "inputs": [[388, 0, 0]]
    }, 
    {
      "op": "elemwise_mul", 
      "name": "deeparpredictionnetwork0_lstm0_t12_out", 
      "inputs": [[379, 0, 0], [389, 0, 0]]
    }, 
    {
      "op": "ones_like", 
      "name": "deeparpredictionnetwork0_deeparpredictionnetwork0_lstm0_zoneoutones_like0", 
      "inputs": [[390, 0, 0]]
    }, 
    {
      "op": "Dropout", 
      "name": "deeparpredictionnetwork0_deeparpredictionnetwork0_lstm0_zoneoutdropout0", 
      "attrs": {"p": "0.1"}, 
      "inputs": [[391, 0, 0]]
    }, 
    {
      "op": "where", 
      "name": "deeparpredictionnetwork0_deeparpredictionnetwork0_lstm0_zoneoutwhere0", 
      "inputs": [[392, 0, 0], [390, 0, 0], [375, 0, 0]]
    }, 
    {
      "op": "FullyConnected", 
      "name": "deeparpredictionnetwork0_lstm0_t13_h2h", 
      "attrs": {"num_hidden": "160"}, 
      "inputs": [[393, 0, 0], [160, 0, 0], [161, 0, 0]]
    }, 
    {
      "op": "elemwise_add", 
      "name": "deeparpredictionnetwork0_lstm0_t13_plus0", 
      "inputs": [[145, 0, 0], [394, 0, 0]]
    }, 
    {
      "op": "SliceChannel", 
      "name": "deeparpredictionnetwork0_lstm0_t13_slice", 
      "attrs": {"num_outputs": "4"}, 
      "inputs": [[395, 0, 0]]
    }, 
    {
      "op": "sigmoid", 
      "name": "deeparpredictionnetwork0_lstm0_t13_o", 
      "inputs": [[396, 3, 0]]
    }, 
    {
      "op": "sigmoid", 
      "name": "deeparpredictionnetwork0_lstm0_t13_f", 
      "inputs": [[396, 1, 0]]
    }, 
    {
      "op": "ones_like", 
      "name": "deeparpredictionnetwork0_deeparpredictionnetwork0_lstm0_zoneoutones_like1", 
      "inputs": [[388, 0, 0]]
    }, 
    {
      "op": "Dropout", 
      "name": "deeparpredictionnetwork0_deeparpredictionnetwork0_lstm0_zoneoutdropout1", 
      "attrs": {"p": "0.1"}, 
      "inputs": [[399, 0, 0]]
    }, 
    {
      "op": "where", 
      "name": "deeparpredictionnetwork0_deeparpredictionnetwork0_lstm0_zoneoutwhere1", 
      "inputs": [[400, 0, 0], [388, 0, 0], [383, 0, 0]]
    }, 
    {
      "op": "elemwise_mul", 
      "name": "deeparpredictionnetwork0_lstm0_t13_mul0", 
      "inputs": [[398, 0, 0], [401, 0, 0]]
    }, 
    {
      "op": "sigmoid", 
      "name": "deeparpredictionnetwork0_lstm0_t13_i", 
      "inputs": [[396, 0, 0]]
    }, 
    {
      "op": "tanh", 
      "name": "deeparpredictionnetwork0_lstm0_t13_c", 
      "inputs": [[396, 2, 0]]
    }, 
    {
      "op": "elemwise_mul", 
      "name": "deeparpredictionnetwork0_lstm0_t13_mul1", 
      "inputs": [[403, 0, 0], [404, 0, 0]]
    }, 
    {
      "op": "elemwise_add", 
      "name": "deeparpredictionnetwork0_lstm0_t13_state", 
      "inputs": [[402, 0, 0], [405, 0, 0]]
    }, 
    {
      "op": "Activation", 
      "name": "deeparpredictionnetwork0_lstm0_t13_activation0", 
      "attrs": {"act_type": "tanh"}, 
      "inputs": [[406, 0, 0]]
    }, 
    {
      "op": "elemwise_mul", 
      "name": "deeparpredictionnetwork0_lstm0_t13_out", 
      "inputs": [[397, 0, 0], [407, 0, 0]]
    }, 
    {
      "op": "ones_like", 
      "name": "deeparpredictionnetwork0_deeparpredictionnetwork0_lstm0_zoneoutones_like0", 
      "inputs": [[408, 0, 0]]
    }, 
    {
      "op": "Dropout", 
      "name": "deeparpredictionnetwork0_deeparpredictionnetwork0_lstm0_zoneoutdropout0", 
      "attrs": {"p": "0.1"}, 
      "inputs": [[409, 0, 0]]
    }, 
    {
      "op": "where", 
      "name": "deeparpredictionnetwork0_deeparpredictionnetwork0_lstm0_zoneoutwhere0", 
      "inputs": [[410, 0, 0], [408, 0, 0], [393, 0, 0]]
    }, 
    {
      "op": "FullyConnected", 
      "name": "deeparpredictionnetwork0_lstm0_t14_h2h", 
      "attrs": {"num_hidden": "160"}, 
      "inputs": [[411, 0, 0], [160, 0, 0], [161, 0, 0]]
    }, 
    {
      "op": "elemwise_add", 
      "name": "deeparpredictionnetwork0_lstm0_t14_plus0", 
      "inputs": [[144, 0, 0], [412, 0, 0]]
    }, 
    {
      "op": "SliceChannel", 
      "name": "deeparpredictionnetwork0_lstm0_t14_slice", 
      "attrs": {"num_outputs": "4"}, 
      "inputs": [[413, 0, 0]]
    }, 
    {
      "op": "sigmoid", 
      "name": "deeparpredictionnetwork0_lstm0_t14_o", 
      "inputs": [[414, 3, 0]]
    }, 
    {
      "op": "sigmoid", 
      "name": "deeparpredictionnetwork0_lstm0_t14_f", 
      "inputs": [[414, 1, 0]]
    }, 
    {
      "op": "ones_like", 
      "name": "deeparpredictionnetwork0_deeparpredictionnetwork0_lstm0_zoneoutones_like1", 
      "inputs": [[406, 0, 0]]
    }, 
    {
      "op": "Dropout", 
      "name": "deeparpredictionnetwork0_deeparpredictionnetwork0_lstm0_zoneoutdropout1", 
      "attrs": {"p": "0.1"}, 
      "inputs": [[417, 0, 0]]
    }, 
    {
      "op": "where", 
      "name": "deeparpredictionnetwork0_deeparpredictionnetwork0_lstm0_zoneoutwhere1", 
      "inputs": [[418, 0, 0], [406, 0, 0], [401, 0, 0]]
    }, 
    {
      "op": "elemwise_mul", 
      "name": "deeparpredictionnetwork0_lstm0_t14_mul0", 
      "inputs": [[416, 0, 0], [419, 0, 0]]
    }, 
    {
      "op": "sigmoid", 
      "name": "deeparpredictionnetwork0_lstm0_t14_i", 
      "inputs": [[414, 0, 0]]
    }, 
    {
      "op": "tanh", 
      "name": "deeparpredictionnetwork0_lstm0_t14_c", 
      "inputs": [[414, 2, 0]]
    }, 
    {
      "op": "elemwise_mul", 
      "name": "deeparpredictionnetwork0_lstm0_t14_mul1", 
      "inputs": [[421, 0, 0], [422, 0, 0]]
    }, 
    {
      "op": "elemwise_add", 
      "name": "deeparpredictionnetwork0_lstm0_t14_state", 
      "inputs": [[420, 0, 0], [423, 0, 0]]
    }, 
    {
      "op": "Activation", 
      "name": "deeparpredictionnetwork0_lstm0_t14_activation0", 
      "attrs": {"act_type": "tanh"}, 
      "inputs": [[424, 0, 0]]
    }, 
    {
      "op": "elemwise_mul", 
      "name": "deeparpredictionnetwork0_lstm0_t14_out", 
      "inputs": [[415, 0, 0], [425, 0, 0]]
    }, 
    {
      "op": "ones_like", 
      "name": "deeparpredictionnetwork0_deeparpredictionnetwork0_lstm0_zoneoutones_like0", 
      "inputs": [[426, 0, 0]]
    }, 
    {
      "op": "Dropout", 
      "name": "deeparpredictionnetwork0_deeparpredictionnetwork0_lstm0_zoneoutdropout0", 
      "attrs": {"p": "0.1"}, 
      "inputs": [[427, 0, 0]]
    }, 
    {
      "op": "where", 
      "name": "deeparpredictionnetwork0_deeparpredictionnetwork0_lstm0_zoneoutwhere0", 
      "inputs": [[428, 0, 0], [426, 0, 0], [411, 0, 0]]
    }, 
    {
      "op": "FullyConnected", 
      "name": "deeparpredictionnetwork0_lstm0_t15_h2h", 
      "attrs": {"num_hidden": "160"}, 
      "inputs": [[429, 0, 0], [160, 0, 0], [161, 0, 0]]
    }, 
    {
      "op": "elemwise_add", 
      "name": "deeparpredictionnetwork0_lstm0_t15_plus0", 
      "inputs": [[143, 0, 0], [430, 0, 0]]
    }, 
    {
      "op": "SliceChannel", 
      "name": "deeparpredictionnetwork0_lstm0_t15_slice", 
      "attrs": {"num_outputs": "4"}, 
      "inputs": [[431, 0, 0]]
    }, 
    {
      "op": "sigmoid", 
      "name": "deeparpredictionnetwork0_lstm0_t15_o", 
      "inputs": [[432, 3, 0]]
    }, 
    {
      "op": "sigmoid", 
      "name": "deeparpredictionnetwork0_lstm0_t15_f", 
      "inputs": [[432, 1, 0]]
    }, 
    {
      "op": "ones_like", 
      "name": "deeparpredictionnetwork0_deeparpredictionnetwork0_lstm0_zoneoutones_like1", 
      "inputs": [[424, 0, 0]]
    }, 
    {
      "op": "Dropout", 
      "name": "deeparpredictionnetwork0_deeparpredictionnetwork0_lstm0_zoneoutdropout1", 
      "attrs": {"p": "0.1"}, 
      "inputs": [[435, 0, 0]]
    }, 
    {
      "op": "where", 
      "name": "deeparpredictionnetwork0_deeparpredictionnetwork0_lstm0_zoneoutwhere1", 
      "inputs": [[436, 0, 0], [424, 0, 0], [419, 0, 0]]
    }, 
    {
      "op": "elemwise_mul", 
      "name": "deeparpredictionnetwork0_lstm0_t15_mul0", 
      "inputs": [[434, 0, 0], [437, 0, 0]]
    }, 
    {
      "op": "sigmoid", 
      "name": "deeparpredictionnetwork0_lstm0_t15_i", 
      "inputs": [[432, 0, 0]]
    }, 
    {
      "op": "tanh", 
      "name": "deeparpredictionnetwork0_lstm0_t15_c", 
      "inputs": [[432, 2, 0]]
    }, 
    {
      "op": "elemwise_mul", 
      "name": "deeparpredictionnetwork0_lstm0_t15_mul1", 
      "inputs": [[439, 0, 0], [440, 0, 0]]
    }, 
    {
      "op": "elemwise_add", 
      "name": "deeparpredictionnetwork0_lstm0_t15_state", 
      "inputs": [[438, 0, 0], [441, 0, 0]]
    }, 
    {
      "op": "Activation", 
      "name": "deeparpredictionnetwork0_lstm0_t15_activation0", 
      "attrs": {"act_type": "tanh"}, 
      "inputs": [[442, 0, 0]]
    }, 
    {
      "op": "elemwise_mul", 
      "name": "deeparpredictionnetwork0_lstm0_t15_out", 
      "inputs": [[433, 0, 0], [443, 0, 0]]
    }, 
    {
      "op": "ones_like", 
      "name": "deeparpredictionnetwork0_deeparpredictionnetwork0_lstm0_zoneoutones_like0", 
      "inputs": [[444, 0, 0]]
    }, 
    {
      "op": "Dropout", 
      "name": "deeparpredictionnetwork0_deeparpredictionnetwork0_lstm0_zoneoutdropout0", 
      "attrs": {"p": "0.1"}, 
      "inputs": [[445, 0, 0]]
    }, 
    {
      "op": "where", 
      "name": "deeparpredictionnetwork0_deeparpredictionnetwork0_lstm0_zoneoutwhere0", 
      "inputs": [[446, 0, 0], [444, 0, 0], [429, 0, 0]]
    }, 
    {
      "op": "FullyConnected", 
      "name": "deeparpredictionnetwork0_lstm0_t16_h2h", 
      "attrs": {"num_hidden": "160"}, 
      "inputs": [[447, 0, 0], [160, 0, 0], [161, 0, 0]]
    }, 
    {
      "op": "elemwise_add", 
      "name": "deeparpredictionnetwork0_lstm0_t16_plus0", 
      "inputs": [[142, 0, 0], [448, 0, 0]]
    }, 
    {
      "op": "SliceChannel", 
      "name": "deeparpredictionnetwork0_lstm0_t16_slice", 
      "attrs": {"num_outputs": "4"}, 
      "inputs": [[449, 0, 0]]
    }, 
    {
      "op": "sigmoid", 
      "name": "deeparpredictionnetwork0_lstm0_t16_o", 
      "inputs": [[450, 3, 0]]
    }, 
    {
      "op": "sigmoid", 
      "name": "deeparpredictionnetwork0_lstm0_t16_f", 
      "inputs": [[450, 1, 0]]
    }, 
    {
      "op": "ones_like", 
      "name": "deeparpredictionnetwork0_deeparpredictionnetwork0_lstm0_zoneoutones_like1", 
      "inputs": [[442, 0, 0]]
    }, 
    {
      "op": "Dropout", 
      "name": "deeparpredictionnetwork0_deeparpredictionnetwork0_lstm0_zoneoutdropout1", 
      "attrs": {"p": "0.1"}, 
      "inputs": [[453, 0, 0]]
    }, 
    {
      "op": "where", 
      "name": "deeparpredictionnetwork0_deeparpredictionnetwork0_lstm0_zoneoutwhere1", 
      "inputs": [[454, 0, 0], [442, 0, 0], [437, 0, 0]]
    }, 
    {
      "op": "elemwise_mul", 
      "name": "deeparpredictionnetwork0_lstm0_t16_mul0", 
      "inputs": [[452, 0, 0], [455, 0, 0]]
    }, 
    {
      "op": "sigmoid", 
      "name": "deeparpredictionnetwork0_lstm0_t16_i", 
      "inputs": [[450, 0, 0]]
    }, 
    {
      "op": "tanh", 
      "name": "deeparpredictionnetwork0_lstm0_t16_c", 
      "inputs": [[450, 2, 0]]
    }, 
    {
      "op": "elemwise_mul", 
      "name": "deeparpredictionnetwork0_lstm0_t16_mul1", 
      "inputs": [[457, 0, 0], [458, 0, 0]]
    }, 
    {
      "op": "elemwise_add", 
      "name": "deeparpredictionnetwork0_lstm0_t16_state", 
      "inputs": [[456, 0, 0], [459, 0, 0]]
    }, 
    {
      "op": "Activation", 
      "name": "deeparpredictionnetwork0_lstm0_t16_activation0", 
      "attrs": {"act_type": "tanh"}, 
      "inputs": [[460, 0, 0]]
    }, 
    {
      "op": "elemwise_mul", 
      "name": "deeparpredictionnetwork0_lstm0_t16_out", 
      "inputs": [[451, 0, 0], [461, 0, 0]]
    }, 
    {
      "op": "ones_like", 
      "name": "deeparpredictionnetwork0_deeparpredictionnetwork0_lstm0_zoneoutones_like0", 
      "inputs": [[462, 0, 0]]
    }, 
    {
      "op": "Dropout", 
      "name": "deeparpredictionnetwork0_deeparpredictionnetwork0_lstm0_zoneoutdropout0", 
      "attrs": {"p": "0.1"}, 
      "inputs": [[463, 0, 0]]
    }, 
    {
      "op": "where", 
      "name": "deeparpredictionnetwork0_deeparpredictionnetwork0_lstm0_zoneoutwhere0", 
      "inputs": [[464, 0, 0], [462, 0, 0], [447, 0, 0]]
    }, 
    {
      "op": "FullyConnected", 
      "name": "deeparpredictionnetwork0_lstm0_t17_h2h", 
      "attrs": {"num_hidden": "160"}, 
      "inputs": [[465, 0, 0], [160, 0, 0], [161, 0, 0]]
    }, 
    {
      "op": "elemwise_add", 
      "name": "deeparpredictionnetwork0_lstm0_t17_plus0", 
      "inputs": [[141, 0, 0], [466, 0, 0]]
    }, 
    {
      "op": "SliceChannel", 
      "name": "deeparpredictionnetwork0_lstm0_t17_slice", 
      "attrs": {"num_outputs": "4"}, 
      "inputs": [[467, 0, 0]]
    }, 
    {
      "op": "sigmoid", 
      "name": "deeparpredictionnetwork0_lstm0_t17_o", 
      "inputs": [[468, 3, 0]]
    }, 
    {
      "op": "sigmoid", 
      "name": "deeparpredictionnetwork0_lstm0_t17_f", 
      "inputs": [[468, 1, 0]]
    }, 
    {
      "op": "ones_like", 
      "name": "deeparpredictionnetwork0_deeparpredictionnetwork0_lstm0_zoneoutones_like1", 
      "inputs": [[460, 0, 0]]
    }, 
    {
      "op": "Dropout", 
      "name": "deeparpredictionnetwork0_deeparpredictionnetwork0_lstm0_zoneoutdropout1", 
      "attrs": {"p": "0.1"}, 
      "inputs": [[471, 0, 0]]
    }, 
    {
      "op": "where", 
      "name": "deeparpredictionnetwork0_deeparpredictionnetwork0_lstm0_zoneoutwhere1", 
      "inputs": [[472, 0, 0], [460, 0, 0], [455, 0, 0]]
    }, 
    {
      "op": "elemwise_mul", 
      "name": "deeparpredictionnetwork0_lstm0_t17_mul0", 
      "inputs": [[470, 0, 0], [473, 0, 0]]
    }, 
    {
      "op": "sigmoid", 
      "name": "deeparpredictionnetwork0_lstm0_t17_i", 
      "inputs": [[468, 0, 0]]
    }, 
    {
      "op": "tanh", 
      "name": "deeparpredictionnetwork0_lstm0_t17_c", 
      "inputs": [[468, 2, 0]]
    }, 
    {
      "op": "elemwise_mul", 
      "name": "deeparpredictionnetwork0_lstm0_t17_mul1", 
      "inputs": [[475, 0, 0], [476, 0, 0]]
    }, 
    {
      "op": "elemwise_add", 
      "name": "deeparpredictionnetwork0_lstm0_t17_state", 
      "inputs": [[474, 0, 0], [477, 0, 0]]
    }, 
    {
      "op": "Activation", 
      "name": "deeparpredictionnetwork0_lstm0_t17_activation0", 
      "attrs": {"act_type": "tanh"}, 
      "inputs": [[478, 0, 0]]
    }, 
    {
      "op": "elemwise_mul", 
      "name": "deeparpredictionnetwork0_lstm0_t17_out", 
      "inputs": [[469, 0, 0], [479, 0, 0]]
    }, 
    {
      "op": "ones_like", 
      "name": "deeparpredictionnetwork0_deeparpredictionnetwork0_lstm0_zoneoutones_like0", 
      "inputs": [[480, 0, 0]]
    }, 
    {
      "op": "Dropout", 
      "name": "deeparpredictionnetwork0_deeparpredictionnetwork0_lstm0_zoneoutdropout0", 
      "attrs": {"p": "0.1"}, 
      "inputs": [[481, 0, 0]]
    }, 
    {
      "op": "where", 
      "name": "deeparpredictionnetwork0_deeparpredictionnetwork0_lstm0_zoneoutwhere0", 
      "inputs": [[482, 0, 0], [480, 0, 0], [465, 0, 0]]
    }, 
    {
      "op": "FullyConnected", 
      "name": "deeparpredictionnetwork0_lstm0_t18_h2h", 
      "attrs": {"num_hidden": "160"}, 
      "inputs": [[483, 0, 0], [160, 0, 0], [161, 0, 0]]
    }, 
    {
      "op": "elemwise_add", 
      "name": "deeparpredictionnetwork0_lstm0_t18_plus0", 
      "inputs": [[140, 0, 0], [484, 0, 0]]
    }, 
    {
      "op": "SliceChannel", 
      "name": "deeparpredictionnetwork0_lstm0_t18_slice", 
      "attrs": {"num_outputs": "4"}, 
      "inputs": [[485, 0, 0]]
    }, 
    {
      "op": "sigmoid", 
      "name": "deeparpredictionnetwork0_lstm0_t18_o", 
      "inputs": [[486, 3, 0]]
    }, 
    {
      "op": "sigmoid", 
      "name": "deeparpredictionnetwork0_lstm0_t18_f", 
      "inputs": [[486, 1, 0]]
    }, 
    {
      "op": "ones_like", 
      "name": "deeparpredictionnetwork0_deeparpredictionnetwork0_lstm0_zoneoutones_like1", 
      "inputs": [[478, 0, 0]]
    }, 
    {
      "op": "Dropout", 
      "name": "deeparpredictionnetwork0_deeparpredictionnetwork0_lstm0_zoneoutdropout1", 
      "attrs": {"p": "0.1"}, 
      "inputs": [[489, 0, 0]]
    }, 
    {
      "op": "where", 
      "name": "deeparpredictionnetwork0_deeparpredictionnetwork0_lstm0_zoneoutwhere1", 
      "inputs": [[490, 0, 0], [478, 0, 0], [473, 0, 0]]
    }, 
    {
      "op": "elemwise_mul", 
      "name": "deeparpredictionnetwork0_lstm0_t18_mul0", 
      "inputs": [[488, 0, 0], [491, 0, 0]]
    }, 
    {
      "op": "sigmoid", 
      "name": "deeparpredictionnetwork0_lstm0_t18_i", 
      "inputs": [[486, 0, 0]]
    }, 
    {
      "op": "tanh", 
      "name": "deeparpredictionnetwork0_lstm0_t18_c", 
      "inputs": [[486, 2, 0]]
    }, 
    {
      "op": "elemwise_mul", 
      "name": "deeparpredictionnetwork0_lstm0_t18_mul1", 
      "inputs": [[493, 0, 0], [494, 0, 0]]
    }, 
    {
      "op": "elemwise_add", 
      "name": "deeparpredictionnetwork0_lstm0_t18_state", 
      "inputs": [[492, 0, 0], [495, 0, 0]]
    }, 
    {
      "op": "Activation", 
      "name": "deeparpredictionnetwork0_lstm0_t18_activation0", 
      "attrs": {"act_type": "tanh"}, 
      "inputs": [[496, 0, 0]]
    }, 
    {
      "op": "elemwise_mul", 
      "name": "deeparpredictionnetwork0_lstm0_t18_out", 
      "inputs": [[487, 0, 0], [497, 0, 0]]
    }, 
    {
      "op": "ones_like", 
      "name": "deeparpredictionnetwork0_deeparpredictionnetwork0_lstm0_zoneoutones_like0", 
      "inputs": [[498, 0, 0]]
    }, 
    {
      "op": "Dropout", 
      "name": "deeparpredictionnetwork0_deeparpredictionnetwork0_lstm0_zoneoutdropout0", 
      "attrs": {"p": "0.1"}, 
      "inputs": [[499, 0, 0]]
    }, 
    {
      "op": "where", 
      "name": "deeparpredictionnetwork0_deeparpredictionnetwork0_lstm0_zoneoutwhere0", 
      "inputs": [[500, 0, 0], [498, 0, 0], [483, 0, 0]]
    }, 
    {
      "op": "FullyConnected", 
      "name": "deeparpredictionnetwork0_lstm0_t19_h2h", 
      "attrs": {"num_hidden": "160"}, 
      "inputs": [[501, 0, 0], [160, 0, 0], [161, 0, 0]]
    }, 
    {
      "op": "elemwise_add", 
      "name": "deeparpredictionnetwork0_lstm0_t19_plus0", 
      "inputs": [[139, 0, 0], [502, 0, 0]]
    }, 
    {
      "op": "SliceChannel", 
      "name": "deeparpredictionnetwork0_lstm0_t19_slice", 
      "attrs": {"num_outputs": "4"}, 
      "inputs": [[503, 0, 0]]
    }, 
    {
      "op": "sigmoid", 
      "name": "deeparpredictionnetwork0_lstm0_t19_o", 
      "inputs": [[504, 3, 0]]
    }, 
    {
      "op": "sigmoid", 
      "name": "deeparpredictionnetwork0_lstm0_t19_f", 
      "inputs": [[504, 1, 0]]
    }, 
    {
      "op": "ones_like", 
      "name": "deeparpredictionnetwork0_deeparpredictionnetwork0_lstm0_zoneoutones_like1", 
      "inputs": [[496, 0, 0]]
    }, 
    {
      "op": "Dropout", 
      "name": "deeparpredictionnetwork0_deeparpredictionnetwork0_lstm0_zoneoutdropout1", 
      "attrs": {"p": "0.1"}, 
      "inputs": [[507, 0, 0]]
    }, 
    {
      "op": "where", 
      "name": "deeparpredictionnetwork0_deeparpredictionnetwork0_lstm0_zoneoutwhere1", 
      "inputs": [[508, 0, 0], [496, 0, 0], [491, 0, 0]]
    }, 
    {
      "op": "elemwise_mul", 
      "name": "deeparpredictionnetwork0_lstm0_t19_mul0", 
      "inputs": [[506, 0, 0], [509, 0, 0]]
    }, 
    {
      "op": "sigmoid", 
      "name": "deeparpredictionnetwork0_lstm0_t19_i", 
      "inputs": [[504, 0, 0]]
    }, 
    {
      "op": "tanh", 
      "name": "deeparpredictionnetwork0_lstm0_t19_c", 
      "inputs": [[504, 2, 0]]
    }, 
    {
      "op": "elemwise_mul", 
      "name": "deeparpredictionnetwork0_lstm0_t19_mul1", 
      "inputs": [[511, 0, 0], [512, 0, 0]]
    }, 
    {
      "op": "elemwise_add", 
      "name": "deeparpredictionnetwork0_lstm0_t19_state", 
      "inputs": [[510, 0, 0], [513, 0, 0]]
    }, 
    {
      "op": "Activation", 
      "name": "deeparpredictionnetwork0_lstm0_t19_activation0", 
      "attrs": {"act_type": "tanh"}, 
      "inputs": [[514, 0, 0]]
    }, 
    {
      "op": "elemwise_mul", 
      "name": "deeparpredictionnetwork0_lstm0_t19_out", 
      "inputs": [[505, 0, 0], [515, 0, 0]]
    }, 
    {
      "op": "ones_like", 
      "name": "deeparpredictionnetwork0_deeparpredictionnetwork0_lstm0_zoneoutones_like0", 
      "inputs": [[516, 0, 0]]
    }, 
    {
      "op": "Dropout", 
      "name": "deeparpredictionnetwork0_deeparpredictionnetwork0_lstm0_zoneoutdropout0", 
      "attrs": {"p": "0.1"}, 
      "inputs": [[517, 0, 0]]
    }, 
    {
      "op": "where", 
      "name": "deeparpredictionnetwork0_deeparpredictionnetwork0_lstm0_zoneoutwhere0", 
      "inputs": [[518, 0, 0], [516, 0, 0], [501, 0, 0]]
    }, 
    {
      "op": "FullyConnected", 
      "name": "deeparpredictionnetwork0_lstm0_t20_h2h", 
      "attrs": {"num_hidden": "160"}, 
      "inputs": [[519, 0, 0], [160, 0, 0], [161, 0, 0]]
    }, 
    {
      "op": "elemwise_add", 
      "name": "deeparpredictionnetwork0_lstm0_t20_plus0", 
      "inputs": [[138, 0, 0], [520, 0, 0]]
    }, 
    {
      "op": "SliceChannel", 
      "name": "deeparpredictionnetwork0_lstm0_t20_slice", 
      "attrs": {"num_outputs": "4"}, 
      "inputs": [[521, 0, 0]]
    }, 
    {
      "op": "sigmoid", 
      "name": "deeparpredictionnetwork0_lstm0_t20_o", 
      "inputs": [[522, 3, 0]]
    }, 
    {
      "op": "sigmoid", 
      "name": "deeparpredictionnetwork0_lstm0_t20_f", 
      "inputs": [[522, 1, 0]]
    }, 
    {
      "op": "ones_like", 
      "name": "deeparpredictionnetwork0_deeparpredictionnetwork0_lstm0_zoneoutones_like1", 
      "inputs": [[514, 0, 0]]
    }, 
    {
      "op": "Dropout", 
      "name": "deeparpredictionnetwork0_deeparpredictionnetwork0_lstm0_zoneoutdropout1", 
      "attrs": {"p": "0.1"}, 
      "inputs": [[525, 0, 0]]
    }, 
    {
      "op": "where", 
      "name": "deeparpredictionnetwork0_deeparpredictionnetwork0_lstm0_zoneoutwhere1", 
      "inputs": [[526, 0, 0], [514, 0, 0], [509, 0, 0]]
    }, 
    {
      "op": "elemwise_mul", 
      "name": "deeparpredictionnetwork0_lstm0_t20_mul0", 
      "inputs": [[524, 0, 0], [527, 0, 0]]
    }, 
    {
      "op": "sigmoid", 
      "name": "deeparpredictionnetwork0_lstm0_t20_i", 
      "inputs": [[522, 0, 0]]
    }, 
    {
      "op": "tanh", 
      "name": "deeparpredictionnetwork0_lstm0_t20_c", 
      "inputs": [[522, 2, 0]]
    }, 
    {
      "op": "elemwise_mul", 
      "name": "deeparpredictionnetwork0_lstm0_t20_mul1", 
      "inputs": [[529, 0, 0], [530, 0, 0]]
    }, 
    {
      "op": "elemwise_add", 
      "name": "deeparpredictionnetwork0_lstm0_t20_state", 
      "inputs": [[528, 0, 0], [531, 0, 0]]
    }, 
    {
      "op": "Activation", 
      "name": "deeparpredictionnetwork0_lstm0_t20_activation0", 
      "attrs": {"act_type": "tanh"}, 
      "inputs": [[532, 0, 0]]
    }, 
    {
      "op": "elemwise_mul", 
      "name": "deeparpredictionnetwork0_lstm0_t20_out", 
      "inputs": [[523, 0, 0], [533, 0, 0]]
    }, 
    {
      "op": "ones_like", 
      "name": "deeparpredictionnetwork0_deeparpredictionnetwork0_lstm0_zoneoutones_like0", 
      "inputs": [[534, 0, 0]]
    }, 
    {
      "op": "Dropout", 
      "name": "deeparpredictionnetwork0_deeparpredictionnetwork0_lstm0_zoneoutdropout0", 
      "attrs": {"p": "0.1"}, 
      "inputs": [[535, 0, 0]]
    }, 
    {
      "op": "where", 
      "name": "deeparpredictionnetwork0_deeparpredictionnetwork0_lstm0_zoneoutwhere0", 
      "inputs": [[536, 0, 0], [534, 0, 0], [519, 0, 0]]
    }, 
    {
      "op": "FullyConnected", 
      "name": "deeparpredictionnetwork0_lstm0_t21_h2h", 
      "attrs": {"num_hidden": "160"}, 
      "inputs": [[537, 0, 0], [160, 0, 0], [161, 0, 0]]
    }, 
    {
      "op": "elemwise_add", 
      "name": "deeparpredictionnetwork0_lstm0_t21_plus0", 
      "inputs": [[137, 0, 0], [538, 0, 0]]
    }, 
    {
      "op": "SliceChannel", 
      "name": "deeparpredictionnetwork0_lstm0_t21_slice", 
      "attrs": {"num_outputs": "4"}, 
      "inputs": [[539, 0, 0]]
    }, 
    {
      "op": "sigmoid", 
      "name": "deeparpredictionnetwork0_lstm0_t21_o", 
      "inputs": [[540, 3, 0]]
    }, 
    {
      "op": "sigmoid", 
      "name": "deeparpredictionnetwork0_lstm0_t21_f", 
      "inputs": [[540, 1, 0]]
    }, 
    {
      "op": "ones_like", 
      "name": "deeparpredictionnetwork0_deeparpredictionnetwork0_lstm0_zoneoutones_like1", 
      "inputs": [[532, 0, 0]]
    }, 
    {
      "op": "Dropout", 
      "name": "deeparpredictionnetwork0_deeparpredictionnetwork0_lstm0_zoneoutdropout1", 
      "attrs": {"p": "0.1"}, 
      "inputs": [[543, 0, 0]]
    }, 
    {
      "op": "where", 
      "name": "deeparpredictionnetwork0_deeparpredictionnetwork0_lstm0_zoneoutwhere1", 
      "inputs": [[544, 0, 0], [532, 0, 0], [527, 0, 0]]
    }, 
    {
      "op": "elemwise_mul", 
      "name": "deeparpredictionnetwork0_lstm0_t21_mul0", 
      "inputs": [[542, 0, 0], [545, 0, 0]]
    }, 
    {
      "op": "sigmoid", 
      "name": "deeparpredictionnetwork0_lstm0_t21_i", 
      "inputs": [[540, 0, 0]]
    }, 
    {
      "op": "tanh", 
      "name": "deeparpredictionnetwork0_lstm0_t21_c", 
      "inputs": [[540, 2, 0]]
    }, 
    {
      "op": "elemwise_mul", 
      "name": "deeparpredictionnetwork0_lstm0_t21_mul1", 
      "inputs": [[547, 0, 0], [548, 0, 0]]
    }, 
    {
      "op": "elemwise_add", 
      "name": "deeparpredictionnetwork0_lstm0_t21_state", 
      "inputs": [[546, 0, 0], [549, 0, 0]]
    }, 
    {
      "op": "Activation", 
      "name": "deeparpredictionnetwork0_lstm0_t21_activation0", 
      "attrs": {"act_type": "tanh"}, 
      "inputs": [[550, 0, 0]]
    }, 
    {
      "op": "elemwise_mul", 
      "name": "deeparpredictionnetwork0_lstm0_t21_out", 
      "inputs": [[541, 0, 0], [551, 0, 0]]
    }, 
    {
      "op": "ones_like", 
      "name": "deeparpredictionnetwork0_deeparpredictionnetwork0_lstm0_zoneoutones_like0", 
      "inputs": [[552, 0, 0]]
    }, 
    {
      "op": "Dropout", 
      "name": "deeparpredictionnetwork0_deeparpredictionnetwork0_lstm0_zoneoutdropout0", 
      "attrs": {"p": "0.1"}, 
      "inputs": [[553, 0, 0]]
    }, 
    {
      "op": "where", 
      "name": "deeparpredictionnetwork0_deeparpredictionnetwork0_lstm0_zoneoutwhere0", 
      "inputs": [[554, 0, 0], [552, 0, 0], [537, 0, 0]]
    }, 
    {
      "op": "FullyConnected", 
      "name": "deeparpredictionnetwork0_lstm0_t22_h2h", 
      "attrs": {"num_hidden": "160"}, 
      "inputs": [[555, 0, 0], [160, 0, 0], [161, 0, 0]]
    }, 
    {
      "op": "elemwise_add", 
      "name": "deeparpredictionnetwork0_lstm0_t22_plus0", 
      "inputs": [[136, 0, 0], [556, 0, 0]]
    }, 
    {
      "op": "SliceChannel", 
      "name": "deeparpredictionnetwork0_lstm0_t22_slice", 
      "attrs": {"num_outputs": "4"}, 
      "inputs": [[557, 0, 0]]
    }, 
    {
      "op": "sigmoid", 
      "name": "deeparpredictionnetwork0_lstm0_t22_o", 
      "inputs": [[558, 3, 0]]
    }, 
    {
      "op": "sigmoid", 
      "name": "deeparpredictionnetwork0_lstm0_t22_f", 
      "inputs": [[558, 1, 0]]
    }, 
    {
      "op": "ones_like", 
      "name": "deeparpredictionnetwork0_deeparpredictionnetwork0_lstm0_zoneoutones_like1", 
      "inputs": [[550, 0, 0]]
    }, 
    {
      "op": "Dropout", 
      "name": "deeparpredictionnetwork0_deeparpredictionnetwork0_lstm0_zoneoutdropout1", 
      "attrs": {"p": "0.1"}, 
      "inputs": [[561, 0, 0]]
    }, 
    {
      "op": "where", 
      "name": "deeparpredictionnetwork0_deeparpredictionnetwork0_lstm0_zoneoutwhere1", 
      "inputs": [[562, 0, 0], [550, 0, 0], [545, 0, 0]]
    }, 
    {
      "op": "elemwise_mul", 
      "name": "deeparpredictionnetwork0_lstm0_t22_mul0", 
      "inputs": [[560, 0, 0], [563, 0, 0]]
    }, 
    {
      "op": "sigmoid", 
      "name": "deeparpredictionnetwork0_lstm0_t22_i", 
      "inputs": [[558, 0, 0]]
    }, 
    {
      "op": "tanh", 
      "name": "deeparpredictionnetwork0_lstm0_t22_c", 
      "inputs": [[558, 2, 0]]
    }, 
    {
      "op": "elemwise_mul", 
      "name": "deeparpredictionnetwork0_lstm0_t22_mul1", 
      "inputs": [[565, 0, 0], [566, 0, 0]]
    }, 
    {
      "op": "elemwise_add", 
      "name": "deeparpredictionnetwork0_lstm0_t22_state", 
      "inputs": [[564, 0, 0], [567, 0, 0]]
    }, 
    {
      "op": "Activation", 
      "name": "deeparpredictionnetwork0_lstm0_t22_activation0", 
      "attrs": {"act_type": "tanh"}, 
      "inputs": [[568, 0, 0]]
    }, 
    {
      "op": "elemwise_mul", 
      "name": "deeparpredictionnetwork0_lstm0_t22_out", 
      "inputs": [[559, 0, 0], [569, 0, 0]]
    }, 
    {
      "op": "ones_like", 
      "name": "deeparpredictionnetwork0_deeparpredictionnetwork0_lstm0_zoneoutones_like0", 
      "inputs": [[570, 0, 0]]
    }, 
    {
      "op": "Dropout", 
      "name": "deeparpredictionnetwork0_deeparpredictionnetwork0_lstm0_zoneoutdropout0", 
      "attrs": {"p": "0.1"}, 
      "inputs": [[571, 0, 0]]
    }, 
    {
      "op": "where", 
      "name": "deeparpredictionnetwork0_deeparpredictionnetwork0_lstm0_zoneoutwhere0", 
      "inputs": [[572, 0, 0], [570, 0, 0], [555, 0, 0]]
    }, 
    {
      "op": "FullyConnected", 
      "name": "deeparpredictionnetwork0_lstm0_t23_h2h", 
      "attrs": {"num_hidden": "160"}, 
      "inputs": [[573, 0, 0], [160, 0, 0], [161, 0, 0]]
    }, 
    {
      "op": "elemwise_add", 
      "name": "deeparpredictionnetwork0_lstm0_t23_plus0", 
      "inputs": [[135, 0, 0], [574, 0, 0]]
    }, 
    {
      "op": "SliceChannel", 
      "name": "deeparpredictionnetwork0_lstm0_t23_slice", 
      "attrs": {"num_outputs": "4"}, 
      "inputs": [[575, 0, 0]]
    }, 
    {
      "op": "sigmoid", 
      "name": "deeparpredictionnetwork0_lstm0_t23_o", 
      "inputs": [[576, 3, 0]]
    }, 
    {
      "op": "sigmoid", 
      "name": "deeparpredictionnetwork0_lstm0_t23_f", 
      "inputs": [[576, 1, 0]]
    }, 
    {
      "op": "ones_like", 
      "name": "deeparpredictionnetwork0_deeparpredictionnetwork0_lstm0_zoneoutones_like1", 
      "inputs": [[568, 0, 0]]
    }, 
    {
      "op": "Dropout", 
      "name": "deeparpredictionnetwork0_deeparpredictionnetwork0_lstm0_zoneoutdropout1", 
      "attrs": {"p": "0.1"}, 
      "inputs": [[579, 0, 0]]
    }, 
    {
      "op": "where", 
      "name": "deeparpredictionnetwork0_deeparpredictionnetwork0_lstm0_zoneoutwhere1", 
      "inputs": [[580, 0, 0], [568, 0, 0], [563, 0, 0]]
    }, 
    {
      "op": "elemwise_mul", 
      "name": "deeparpredictionnetwork0_lstm0_t23_mul0", 
      "inputs": [[578, 0, 0], [581, 0, 0]]
    }, 
    {
      "op": "sigmoid", 
      "name": "deeparpredictionnetwork0_lstm0_t23_i", 
      "inputs": [[576, 0, 0]]
    }, 
    {
      "op": "tanh", 
      "name": "deeparpredictionnetwork0_lstm0_t23_c", 
      "inputs": [[576, 2, 0]]
    }, 
    {
      "op": "elemwise_mul", 
      "name": "deeparpredictionnetwork0_lstm0_t23_mul1", 
      "inputs": [[583, 0, 0], [584, 0, 0]]
    }, 
    {
      "op": "elemwise_add", 
      "name": "deeparpredictionnetwork0_lstm0_t23_state", 
      "inputs": [[582, 0, 0], [585, 0, 0]]
    }, 
    {
      "op": "Activation", 
      "name": "deeparpredictionnetwork0_lstm0_t23_activation0", 
      "attrs": {"act_type": "tanh"}, 
      "inputs": [[586, 0, 0]]
    }, 
    {
      "op": "elemwise_mul", 
      "name": "deeparpredictionnetwork0_lstm0_t23_out", 
      "inputs": [[577, 0, 0], [587, 0, 0]]
    }, 
    {
      "op": "ones_like", 
      "name": "deeparpredictionnetwork0_deeparpredictionnetwork0_lstm0_zoneoutones_like0", 
      "inputs": [[588, 0, 0]]
    }, 
    {
      "op": "Dropout", 
      "name": "deeparpredictionnetwork0_deeparpredictionnetwork0_lstm0_zoneoutdropout0", 
      "attrs": {"p": "0.1"}, 
      "inputs": [[589, 0, 0]]
    }, 
    {
      "op": "where", 
      "name": "deeparpredictionnetwork0_deeparpredictionnetwork0_lstm0_zoneoutwhere0", 
      "inputs": [[590, 0, 0], [588, 0, 0], [573, 0, 0]]
    }, 
    {
      "op": "repeat", 
      "name": "deeparpredictionnetwork0_repeat5", 
      "attrs": {
        "axis": "0", 
        "repeats": "100"
      }, 
      "inputs": [[591, 0, 0]]
    }, 
    {
      "op": "FullyConnected", 
      "name": "deeparpredictionnetwork0_lstm0_t0_h2h", 
      "attrs": {"num_hidden": "160"}, 
      "inputs": [[592, 0, 0], [160, 0, 0], [161, 0, 0]]
    }, 
    {
      "op": "elemwise_add", 
      "name": "deeparpredictionnetwork0_lstm0_t0_plus0", 
      "inputs": [[84, 0, 0], [593, 0, 0]]
    }, 
    {
      "op": "SliceChannel", 
      "name": "deeparpredictionnetwork0_lstm0_t0_slice", 
      "attrs": {"num_outputs": "4"}, 
      "inputs": [[594, 0, 0]]
    }, 
    {
      "op": "sigmoid", 
      "name": "deeparpredictionnetwork0_lstm0_t0_o", 
      "inputs": [[595, 3, 0]]
    }, 
    {
      "op": "sigmoid", 
      "name": "deeparpredictionnetwork0_lstm0_t0_f", 
      "inputs": [[595, 1, 0]]
    }, 
    {
      "op": "ones_like", 
      "name": "deeparpredictionnetwork0_deeparpredictionnetwork0_lstm0_zoneoutones_like1", 
      "inputs": [[586, 0, 0]]
    }, 
    {
      "op": "Dropout", 
      "name": "deeparpredictionnetwork0_deeparpredictionnetwork0_lstm0_zoneoutdropout1", 
      "attrs": {"p": "0.1"}, 
      "inputs": [[598, 0, 0]]
    }, 
    {
      "op": "where", 
      "name": "deeparpredictionnetwork0_deeparpredictionnetwork0_lstm0_zoneoutwhere1", 
      "inputs": [[599, 0, 0], [586, 0, 0], [581, 0, 0]]
    }, 
    {
      "op": "repeat", 
      "name": "deeparpredictionnetwork0_repeat6", 
      "attrs": {
        "axis": "0", 
        "repeats": "100"
      }, 
      "inputs": [[600, 0, 0]]
    }, 
    {
      "op": "elemwise_mul", 
      "name": "deeparpredictionnetwork0_lstm0_t0_mul0", 
      "inputs": [[597, 0, 0], [601, 0, 0]]
    }, 
    {
      "op": "sigmoid", 
      "name": "deeparpredictionnetwork0_lstm0_t0_i", 
      "inputs": [[595, 0, 0]]
    }, 
    {
      "op": "tanh", 
      "name": "deeparpredictionnetwork0_lstm0_t0_c", 
      "inputs": [[595, 2, 0]]
    }, 
    {
      "op": "elemwise_mul", 
      "name": "deeparpredictionnetwork0_lstm0_t0_mul1", 
      "inputs": [[603, 0, 0], [604, 0, 0]]
    }, 
    {
      "op": "elemwise_add", 
      "name": "deeparpredictionnetwork0_lstm0_t0_state", 
      "inputs": [[602, 0, 0], [605, 0, 0]]
    }, 
    {
      "op": "Activation", 
      "name": "deeparpredictionnetwork0_lstm0_t0_activation0", 
      "attrs": {"act_type": "tanh"}, 
      "inputs": [[606, 0, 0]]
    }, 
    {
      "op": "elemwise_mul", 
      "name": "deeparpredictionnetwork0_lstm0_t0_out", 
      "inputs": [[596, 0, 0], [607, 0, 0]]
    }, 
    {
      "op": "null", 
      "name": "deeparpredictionnetwork0_lstm1_i2h_weight", 
      "attrs": {
        "__dtype__": "0", 
        "__lr_mult__": "1.0", 
        "__shape__": "(160, 40)", 
        "__storage_type__": "0", 
        "__wd_mult__": "1.0"
      }, 
      "inputs": []
    }, 
    {
      "op": "null", 
      "name": "deeparpredictionnetwork0_lstm1_i2h_bias", 
      "attrs": {
        "__dtype__": "0", 
        "__init__": "zeros", 
        "__lr_mult__": "1.0", 
        "__shape__": "(160,)", 
        "__storage_type__": "0", 
        "__wd_mult__": "1.0"
      }, 
      "inputs": []
    }, 
    {
      "op": "FullyConnected", 
      "name": "deeparpredictionnetwork0_lstm1_t0_i2h", 
      "attrs": {"num_hidden": "160"}, 
      "inputs": [[608, 0, 0], [609, 0, 0], [610, 0, 0]]
    }, 
    {
      "op": "FullyConnected", 
      "name": "deeparpredictionnetwork0_lstm1_t23_i2h", 
      "attrs": {"num_hidden": "160"}, 
      "inputs": [[588, 0, 0], [609, 0, 0], [610, 0, 0]]
    }, 
    {
      "op": "FullyConnected", 
      "name": "deeparpredictionnetwork0_lstm1_t22_i2h", 
      "attrs": {"num_hidden": "160"}, 
      "inputs": [[570, 0, 0], [609, 0, 0], [610, 0, 0]]
    }, 
    {
      "op": "FullyConnected", 
      "name": "deeparpredictionnetwork0_lstm1_t21_i2h", 
      "attrs": {"num_hidden": "160"}, 
      "inputs": [[552, 0, 0], [609, 0, 0], [610, 0, 0]]
    }, 
    {
      "op": "FullyConnected", 
      "name": "deeparpredictionnetwork0_lstm1_t20_i2h", 
      "attrs": {"num_hidden": "160"}, 
      "inputs": [[534, 0, 0], [609, 0, 0], [610, 0, 0]]
    }, 
    {
      "op": "FullyConnected", 
      "name": "deeparpredictionnetwork0_lstm1_t19_i2h", 
      "attrs": {"num_hidden": "160"}, 
      "inputs": [[516, 0, 0], [609, 0, 0], [610, 0, 0]]
    }, 
    {
      "op": "FullyConnected", 
      "name": "deeparpredictionnetwork0_lstm1_t18_i2h", 
      "attrs": {"num_hidden": "160"}, 
      "inputs": [[498, 0, 0], [609, 0, 0], [610, 0, 0]]
    }, 
    {
      "op": "FullyConnected", 
      "name": "deeparpredictionnetwork0_lstm1_t17_i2h", 
      "attrs": {"num_hidden": "160"}, 
      "inputs": [[480, 0, 0], [609, 0, 0], [610, 0, 0]]
    }, 
    {
      "op": "FullyConnected", 
      "name": "deeparpredictionnetwork0_lstm1_t16_i2h", 
      "attrs": {"num_hidden": "160"}, 
      "inputs": [[462, 0, 0], [609, 0, 0], [610, 0, 0]]
    }, 
    {
      "op": "FullyConnected", 
      "name": "deeparpredictionnetwork0_lstm1_t15_i2h", 
      "attrs": {"num_hidden": "160"}, 
      "inputs": [[444, 0, 0], [609, 0, 0], [610, 0, 0]]
    }, 
    {
      "op": "FullyConnected", 
      "name": "deeparpredictionnetwork0_lstm1_t14_i2h", 
      "attrs": {"num_hidden": "160"}, 
      "inputs": [[426, 0, 0], [609, 0, 0], [610, 0, 0]]
    }, 
    {
      "op": "FullyConnected", 
      "name": "deeparpredictionnetwork0_lstm1_t13_i2h", 
      "attrs": {"num_hidden": "160"}, 
      "inputs": [[408, 0, 0], [609, 0, 0], [610, 0, 0]]
    }, 
    {
      "op": "FullyConnected", 
      "name": "deeparpredictionnetwork0_lstm1_t12_i2h", 
      "attrs": {"num_hidden": "160"}, 
      "inputs": [[390, 0, 0], [609, 0, 0], [610, 0, 0]]
    }, 
    {
      "op": "FullyConnected", 
      "name": "deeparpredictionnetwork0_lstm1_t11_i2h", 
      "attrs": {"num_hidden": "160"}, 
      "inputs": [[372, 0, 0], [609, 0, 0], [610, 0, 0]]
    }, 
    {
      "op": "FullyConnected", 
      "name": "deeparpredictionnetwork0_lstm1_t10_i2h", 
      "attrs": {"num_hidden": "160"}, 
      "inputs": [[354, 0, 0], [609, 0, 0], [610, 0, 0]]
    }, 
    {
      "op": "FullyConnected", 
      "name": "deeparpredictionnetwork0_lstm1_t9_i2h", 
      "attrs": {"num_hidden": "160"}, 
      "inputs": [[336, 0, 0], [609, 0, 0], [610, 0, 0]]
    }, 
    {
      "op": "FullyConnected", 
      "name": "deeparpredictionnetwork0_lstm1_t8_i2h", 
      "attrs": {"num_hidden": "160"}, 
      "inputs": [[318, 0, 0], [609, 0, 0], [610, 0, 0]]
    }, 
    {
      "op": "FullyConnected", 
      "name": "deeparpredictionnetwork0_lstm1_t7_i2h", 
      "attrs": {"num_hidden": "160"}, 
      "inputs": [[300, 0, 0], [609, 0, 0], [610, 0, 0]]
    }, 
    {
      "op": "FullyConnected", 
      "name": "deeparpredictionnetwork0_lstm1_t6_i2h", 
      "attrs": {"num_hidden": "160"}, 
      "inputs": [[282, 0, 0], [609, 0, 0], [610, 0, 0]]
    }, 
    {
      "op": "FullyConnected", 
      "name": "deeparpredictionnetwork0_lstm1_t5_i2h", 
      "attrs": {"num_hidden": "160"}, 
      "inputs": [[264, 0, 0], [609, 0, 0], [610, 0, 0]]
    }, 
    {
      "op": "FullyConnected", 
      "name": "deeparpredictionnetwork0_lstm1_t4_i2h", 
      "attrs": {"num_hidden": "160"}, 
      "inputs": [[246, 0, 0], [609, 0, 0], [610, 0, 0]]
    }, 
    {
      "op": "FullyConnected", 
      "name": "deeparpredictionnetwork0_lstm1_t3_i2h", 
      "attrs": {"num_hidden": "160"}, 
      "inputs": [[228, 0, 0], [609, 0, 0], [610, 0, 0]]
    }, 
    {
      "op": "FullyConnected", 
      "name": "deeparpredictionnetwork0_lstm1_t2_i2h", 
      "attrs": {"num_hidden": "160"}, 
      "inputs": [[210, 0, 0], [609, 0, 0], [610, 0, 0]]
    }, 
    {
      "op": "FullyConnected", 
      "name": "deeparpredictionnetwork0_lstm1_t1_i2h", 
      "attrs": {"num_hidden": "160"}, 
      "inputs": [[192, 0, 0], [609, 0, 0], [610, 0, 0]]
    }, 
    {
      "op": "FullyConnected", 
      "name": "deeparpredictionnetwork0_lstm1_t0_i2h", 
      "attrs": {"num_hidden": "160"}, 
      "inputs": [[174, 0, 0], [609, 0, 0], [610, 0, 0]]
    }, 
    {
      "op": "_zeros", 
      "name": "deeparpredictionnetwork0_deeparpredictionnetwork0_lstm1_begin_state_0", 
      "attrs": {
        "__layout__": "NC", 
        "dtype": "float32", 
        "shape": "(0, 40)"
      }, 
      "inputs": []
    }, 
    {
      "op": "null", 
      "name": "deeparpredictionnetwork0_lstm1_h2h_weight", 
      "attrs": {
        "__dtype__": "0", 
        "__lr_mult__": "1.0", 
        "__shape__": "(160, 40)", 
        "__storage_type__": "0", 
        "__wd_mult__": "1.0"
      }, 
      "inputs": []
    }, 
    {
      "op": "null", 
      "name": "deeparpredictionnetwork0_lstm1_h2h_bias", 
      "attrs": {
        "__dtype__": "0", 
        "__init__": "zeros", 
        "__lr_mult__": "1.0", 
        "__shape__": "(160,)", 
        "__storage_type__": "0", 
        "__wd_mult__": "1.0"
      }, 
      "inputs": []
    }, 
    {
      "op": "FullyConnected", 
      "name": "deeparpredictionnetwork0_lstm1_t0_h2h", 
      "attrs": {"num_hidden": "160"}, 
      "inputs": [[636, 0, 0], [637, 0, 0], [638, 0, 0]]
    }, 
    {
      "op": "elemwise_add", 
      "name": "deeparpredictionnetwork0_lstm1_t0_plus0", 
      "inputs": [[635, 0, 0], [639, 0, 0]]
    }, 
    {
      "op": "SliceChannel", 
      "name": "deeparpredictionnetwork0_lstm1_t0_slice", 
      "attrs": {"num_outputs": "4"}, 
      "inputs": [[640, 0, 0]]
    }, 
    {
      "op": "sigmoid", 
      "name": "deeparpredictionnetwork0_lstm1_t0_o", 
      "inputs": [[641, 3, 0]]
    }, 
    {
      "op": "sigmoid", 
      "name": "deeparpredictionnetwork0_lstm1_t0_f", 
      "inputs": [[641, 1, 0]]
    }, 
    {
      "op": "_zeros", 
      "name": "deeparpredictionnetwork0_deeparpredictionnetwork0_lstm1_begin_state_1", 
      "attrs": {
        "__layout__": "NC", 
        "dtype": "float32", 
        "shape": "(0, 40)"
      }, 
      "inputs": []
    }, 
    {
      "op": "elemwise_mul", 
      "name": "deeparpredictionnetwork0_lstm1_t0_mul0", 
      "inputs": [[643, 0, 0], [644, 0, 0]]
    }, 
    {
      "op": "sigmoid", 
      "name": "deeparpredictionnetwork0_lstm1_t0_i", 
      "inputs": [[641, 0, 0]]
    }, 
    {
      "op": "tanh", 
      "name": "deeparpredictionnetwork0_lstm1_t0_c", 
      "inputs": [[641, 2, 0]]
    }, 
    {
      "op": "elemwise_mul", 
      "name": "deeparpredictionnetwork0_lstm1_t0_mul1", 
      "inputs": [[646, 0, 0], [647, 0, 0]]
    }, 
    {
      "op": "elemwise_add", 
      "name": "deeparpredictionnetwork0_lstm1_t0_state", 
      "inputs": [[645, 0, 0], [648, 0, 0]]
    }, 
    {
      "op": "Activation", 
      "name": "deeparpredictionnetwork0_lstm1_t0_activation0", 
      "attrs": {"act_type": "tanh"}, 
      "inputs": [[649, 0, 0]]
    }, 
    {
      "op": "elemwise_mul", 
      "name": "deeparpredictionnetwork0_lstm1_t0_out", 
      "inputs": [[642, 0, 0], [650, 0, 0]]
    }, 
    {
      "op": "ones_like", 
      "name": "deeparpredictionnetwork0_deeparpredictionnetwork0_deeparpredictionnetwork0_lstm1_residualcellzoneoutones_like0", 
      "inputs": [[651, 0, 0]]
    }, 
    {
      "op": "Dropout", 
      "name": "deeparpredictionnetwork0_deeparpredictionnetwork0_deeparpredictionnetwork0_lstm1_residualcellzoneoutdropout0", 
      "attrs": {"p": "0.1"}, 
      "inputs": [[652, 0, 0]]
    }, 
    {
      "op": "where", 
      "name": "deeparpredictionnetwork0_deeparpredictionnetwork0_deeparpredictionnetwork0_lstm1_residualcellzoneoutwhere0", 
      "inputs": [[653, 0, 0], [651, 0, 0], [636, 0, 0]]
    }, 
    {
      "op": "FullyConnected", 
      "name": "deeparpredictionnetwork0_lstm1_t1_h2h", 
      "attrs": {"num_hidden": "160"}, 
      "inputs": [[654, 0, 0], [637, 0, 0], [638, 0, 0]]
    }, 
    {
      "op": "elemwise_add", 
      "name": "deeparpredictionnetwork0_lstm1_t1_plus0", 
      "inputs": [[634, 0, 0], [655, 0, 0]]
    }, 
    {
      "op": "SliceChannel", 
      "name": "deeparpredictionnetwork0_lstm1_t1_slice", 
      "attrs": {"num_outputs": "4"}, 
      "inputs": [[656, 0, 0]]
    }, 
    {
      "op": "sigmoid", 
      "name": "deeparpredictionnetwork0_lstm1_t1_o", 
      "inputs": [[657, 3, 0]]
    }, 
    {
      "op": "sigmoid", 
      "name": "deeparpredictionnetwork0_lstm1_t1_f", 
      "inputs": [[657, 1, 0]]
    }, 
    {
      "op": "ones_like", 
      "name": "deeparpredictionnetwork0_deeparpredictionnetwork0_deeparpredictionnetwork0_lstm1_residualcellzoneoutones_like1", 
      "inputs": [[649, 0, 0]]
    }, 
    {
      "op": "Dropout", 
      "name": "deeparpredictionnetwork0_deeparpredictionnetwork0_deeparpredictionnetwork0_lstm1_residualcellzoneoutdropout1", 
      "attrs": {"p": "0.1"}, 
      "inputs": [[660, 0, 0]]
    }, 
    {
      "op": "where", 
      "name": "deeparpredictionnetwork0_deeparpredictionnetwork0_deeparpredictionnetwork0_lstm1_residualcellzoneoutwhere1", 
      "inputs": [[661, 0, 0], [649, 0, 0], [644, 0, 0]]
    }, 
    {
      "op": "elemwise_mul", 
      "name": "deeparpredictionnetwork0_lstm1_t1_mul0", 
      "inputs": [[659, 0, 0], [662, 0, 0]]
    }, 
    {
      "op": "sigmoid", 
      "name": "deeparpredictionnetwork0_lstm1_t1_i", 
      "inputs": [[657, 0, 0]]
    }, 
    {
      "op": "tanh", 
      "name": "deeparpredictionnetwork0_lstm1_t1_c", 
      "inputs": [[657, 2, 0]]
    }, 
    {
      "op": "elemwise_mul", 
      "name": "deeparpredictionnetwork0_lstm1_t1_mul1", 
      "inputs": [[664, 0, 0], [665, 0, 0]]
    }, 
    {
      "op": "elemwise_add", 
      "name": "deeparpredictionnetwork0_lstm1_t1_state", 
      "inputs": [[663, 0, 0], [666, 0, 0]]
    }, 
    {
      "op": "Activation", 
      "name": "deeparpredictionnetwork0_lstm1_t1_activation0", 
      "attrs": {"act_type": "tanh"}, 
      "inputs": [[667, 0, 0]]
    }, 
    {
      "op": "elemwise_mul", 
      "name": "deeparpredictionnetwork0_lstm1_t1_out", 
      "inputs": [[658, 0, 0], [668, 0, 0]]
    }, 
    {
      "op": "ones_like", 
      "name": "deeparpredictionnetwork0_deeparpredictionnetwork0_deeparpredictionnetwork0_lstm1_residualcellzoneoutones_like0", 
      "inputs": [[669, 0, 0]]
    }, 
    {
      "op": "Dropout", 
      "name": "deeparpredictionnetwork0_deeparpredictionnetwork0_deeparpredictionnetwork0_lstm1_residualcellzoneoutdropout0", 
      "attrs": {"p": "0.1"}, 
      "inputs": [[670, 0, 0]]
    }, 
    {
      "op": "where", 
      "name": "deeparpredictionnetwork0_deeparpredictionnetwork0_deeparpredictionnetwork0_lstm1_residualcellzoneoutwhere0", 
      "inputs": [[671, 0, 0], [669, 0, 0], [654, 0, 0]]
    }, 
    {
      "op": "FullyConnected", 
      "name": "deeparpredictionnetwork0_lstm1_t2_h2h", 
      "attrs": {"num_hidden": "160"}, 
      "inputs": [[672, 0, 0], [637, 0, 0], [638, 0, 0]]
    }, 
    {
      "op": "elemwise_add", 
      "name": "deeparpredictionnetwork0_lstm1_t2_plus0", 
      "inputs": [[633, 0, 0], [673, 0, 0]]
    }, 
    {
      "op": "SliceChannel", 
      "name": "deeparpredictionnetwork0_lstm1_t2_slice", 
      "attrs": {"num_outputs": "4"}, 
      "inputs": [[674, 0, 0]]
    }, 
    {
      "op": "sigmoid", 
      "name": "deeparpredictionnetwork0_lstm1_t2_o", 
      "inputs": [[675, 3, 0]]
    }, 
    {
      "op": "sigmoid", 
      "name": "deeparpredictionnetwork0_lstm1_t2_f", 
      "inputs": [[675, 1, 0]]
    }, 
    {
      "op": "ones_like", 
      "name": "deeparpredictionnetwork0_deeparpredictionnetwork0_deeparpredictionnetwork0_lstm1_residualcellzoneoutones_like1", 
      "inputs": [[667, 0, 0]]
    }, 
    {
      "op": "Dropout", 
      "name": "deeparpredictionnetwork0_deeparpredictionnetwork0_deeparpredictionnetwork0_lstm1_residualcellzoneoutdropout1", 
      "attrs": {"p": "0.1"}, 
      "inputs": [[678, 0, 0]]
    }, 
    {
      "op": "where", 
      "name": "deeparpredictionnetwork0_deeparpredictionnetwork0_deeparpredictionnetwork0_lstm1_residualcellzoneoutwhere1", 
      "inputs": [[679, 0, 0], [667, 0, 0], [662, 0, 0]]
    }, 
    {
      "op": "elemwise_mul", 
      "name": "deeparpredictionnetwork0_lstm1_t2_mul0", 
      "inputs": [[677, 0, 0], [680, 0, 0]]
    }, 
    {
      "op": "sigmoid", 
      "name": "deeparpredictionnetwork0_lstm1_t2_i", 
      "inputs": [[675, 0, 0]]
    }, 
    {
      "op": "tanh", 
      "name": "deeparpredictionnetwork0_lstm1_t2_c", 
      "inputs": [[675, 2, 0]]
    }, 
    {
      "op": "elemwise_mul", 
      "name": "deeparpredictionnetwork0_lstm1_t2_mul1", 
      "inputs": [[682, 0, 0], [683, 0, 0]]
    }, 
    {
      "op": "elemwise_add", 
      "name": "deeparpredictionnetwork0_lstm1_t2_state", 
      "inputs": [[681, 0, 0], [684, 0, 0]]
    }, 
    {
      "op": "Activation", 
      "name": "deeparpredictionnetwork0_lstm1_t2_activation0", 
      "attrs": {"act_type": "tanh"}, 
      "inputs": [[685, 0, 0]]
    }, 
    {
      "op": "elemwise_mul", 
      "name": "deeparpredictionnetwork0_lstm1_t2_out", 
      "inputs": [[676, 0, 0], [686, 0, 0]]
    }, 
    {
      "op": "ones_like", 
      "name": "deeparpredictionnetwork0_deeparpredictionnetwork0_deeparpredictionnetwork0_lstm1_residualcellzoneoutones_like0", 
      "inputs": [[687, 0, 0]]
    }, 
    {
      "op": "Dropout", 
      "name": "deeparpredictionnetwork0_deeparpredictionnetwork0_deeparpredictionnetwork0_lstm1_residualcellzoneoutdropout0", 
      "attrs": {"p": "0.1"}, 
      "inputs": [[688, 0, 0]]
    }, 
    {
      "op": "where", 
      "name": "deeparpredictionnetwork0_deeparpredictionnetwork0_deeparpredictionnetwork0_lstm1_residualcellzoneoutwhere0", 
      "inputs": [[689, 0, 0], [687, 0, 0], [672, 0, 0]]
    }, 
    {
      "op": "FullyConnected", 
      "name": "deeparpredictionnetwork0_lstm1_t3_h2h", 
      "attrs": {"num_hidden": "160"}, 
      "inputs": [[690, 0, 0], [637, 0, 0], [638, 0, 0]]
    }, 
    {
      "op": "elemwise_add", 
      "name": "deeparpredictionnetwork0_lstm1_t3_plus0", 
      "inputs": [[632, 0, 0], [691, 0, 0]]
    }, 
    {
      "op": "SliceChannel", 
      "name": "deeparpredictionnetwork0_lstm1_t3_slice", 
      "attrs": {"num_outputs": "4"}, 
      "inputs": [[692, 0, 0]]
    }, 
    {
      "op": "sigmoid", 
      "name": "deeparpredictionnetwork0_lstm1_t3_o", 
      "inputs": [[693, 3, 0]]
    }, 
    {
      "op": "sigmoid", 
      "name": "deeparpredictionnetwork0_lstm1_t3_f", 
      "inputs": [[693, 1, 0]]
    }, 
    {
      "op": "ones_like", 
      "name": "deeparpredictionnetwork0_deeparpredictionnetwork0_deeparpredictionnetwork0_lstm1_residualcellzoneoutones_like1", 
      "inputs": [[685, 0, 0]]
    }, 
    {
      "op": "Dropout", 
      "name": "deeparpredictionnetwork0_deeparpredictionnetwork0_deeparpredictionnetwork0_lstm1_residualcellzoneoutdropout1", 
      "attrs": {"p": "0.1"}, 
      "inputs": [[696, 0, 0]]
    }, 
    {
      "op": "where", 
      "name": "deeparpredictionnetwork0_deeparpredictionnetwork0_deeparpredictionnetwork0_lstm1_residualcellzoneoutwhere1", 
      "inputs": [[697, 0, 0], [685, 0, 0], [680, 0, 0]]
    }, 
    {
      "op": "elemwise_mul", 
      "name": "deeparpredictionnetwork0_lstm1_t3_mul0", 
      "inputs": [[695, 0, 0], [698, 0, 0]]
    }, 
    {
      "op": "sigmoid", 
      "name": "deeparpredictionnetwork0_lstm1_t3_i", 
      "inputs": [[693, 0, 0]]
    }, 
    {
      "op": "tanh", 
      "name": "deeparpredictionnetwork0_lstm1_t3_c", 
      "inputs": [[693, 2, 0]]
    }, 
    {
      "op": "elemwise_mul", 
      "name": "deeparpredictionnetwork0_lstm1_t3_mul1", 
      "inputs": [[700, 0, 0], [701, 0, 0]]
    }, 
    {
      "op": "elemwise_add", 
      "name": "deeparpredictionnetwork0_lstm1_t3_state", 
      "inputs": [[699, 0, 0], [702, 0, 0]]
    }, 
    {
      "op": "Activation", 
      "name": "deeparpredictionnetwork0_lstm1_t3_activation0", 
      "attrs": {"act_type": "tanh"}, 
      "inputs": [[703, 0, 0]]
    }, 
    {
      "op": "elemwise_mul", 
      "name": "deeparpredictionnetwork0_lstm1_t3_out", 
      "inputs": [[694, 0, 0], [704, 0, 0]]
    }, 
    {
      "op": "ones_like", 
      "name": "deeparpredictionnetwork0_deeparpredictionnetwork0_deeparpredictionnetwork0_lstm1_residualcellzoneoutones_like0", 
      "inputs": [[705, 0, 0]]
    }, 
    {
      "op": "Dropout", 
      "name": "deeparpredictionnetwork0_deeparpredictionnetwork0_deeparpredictionnetwork0_lstm1_residualcellzoneoutdropout0", 
      "attrs": {"p": "0.1"}, 
      "inputs": [[706, 0, 0]]
    }, 
    {
      "op": "where", 
      "name": "deeparpredictionnetwork0_deeparpredictionnetwork0_deeparpredictionnetwork0_lstm1_residualcellzoneoutwhere0", 
      "inputs": [[707, 0, 0], [705, 0, 0], [690, 0, 0]]
    }, 
    {
      "op": "FullyConnected", 
      "name": "deeparpredictionnetwork0_lstm1_t4_h2h", 
      "attrs": {"num_hidden": "160"}, 
      "inputs": [[708, 0, 0], [637, 0, 0], [638, 0, 0]]
    }, 
    {
      "op": "elemwise_add", 
      "name": "deeparpredictionnetwork0_lstm1_t4_plus0", 
      "inputs": [[631, 0, 0], [709, 0, 0]]
    }, 
    {
      "op": "SliceChannel", 
      "name": "deeparpredictionnetwork0_lstm1_t4_slice", 
      "attrs": {"num_outputs": "4"}, 
      "inputs": [[710, 0, 0]]
    }, 
    {
      "op": "sigmoid", 
      "name": "deeparpredictionnetwork0_lstm1_t4_o", 
      "inputs": [[711, 3, 0]]
    }, 
    {
      "op": "sigmoid", 
      "name": "deeparpredictionnetwork0_lstm1_t4_f", 
      "inputs": [[711, 1, 0]]
    }, 
    {
      "op": "ones_like", 
      "name": "deeparpredictionnetwork0_deeparpredictionnetwork0_deeparpredictionnetwork0_lstm1_residualcellzoneoutones_like1", 
      "inputs": [[703, 0, 0]]
    }, 
    {
      "op": "Dropout", 
      "name": "deeparpredictionnetwork0_deeparpredictionnetwork0_deeparpredictionnetwork0_lstm1_residualcellzoneoutdropout1", 
      "attrs": {"p": "0.1"}, 
      "inputs": [[714, 0, 0]]
    }, 
    {
      "op": "where", 
      "name": "deeparpredictionnetwork0_deeparpredictionnetwork0_deeparpredictionnetwork0_lstm1_residualcellzoneoutwhere1", 
      "inputs": [[715, 0, 0], [703, 0, 0], [698, 0, 0]]
    }, 
    {
      "op": "elemwise_mul", 
      "name": "deeparpredictionnetwork0_lstm1_t4_mul0", 
      "inputs": [[713, 0, 0], [716, 0, 0]]
    }, 
    {
      "op": "sigmoid", 
      "name": "deeparpredictionnetwork0_lstm1_t4_i", 
      "inputs": [[711, 0, 0]]
    }, 
    {
      "op": "tanh", 
      "name": "deeparpredictionnetwork0_lstm1_t4_c", 
      "inputs": [[711, 2, 0]]
    }, 
    {
      "op": "elemwise_mul", 
      "name": "deeparpredictionnetwork0_lstm1_t4_mul1", 
      "inputs": [[718, 0, 0], [719, 0, 0]]
    }, 
    {
      "op": "elemwise_add", 
      "name": "deeparpredictionnetwork0_lstm1_t4_state", 
      "inputs": [[717, 0, 0], [720, 0, 0]]
    }, 
    {
      "op": "Activation", 
      "name": "deeparpredictionnetwork0_lstm1_t4_activation0", 
      "attrs": {"act_type": "tanh"}, 
      "inputs": [[721, 0, 0]]
    }, 
    {
      "op": "elemwise_mul", 
      "name": "deeparpredictionnetwork0_lstm1_t4_out", 
      "inputs": [[712, 0, 0], [722, 0, 0]]
    }, 
    {
      "op": "ones_like", 
      "name": "deeparpredictionnetwork0_deeparpredictionnetwork0_deeparpredictionnetwork0_lstm1_residualcellzoneoutones_like0", 
      "inputs": [[723, 0, 0]]
    }, 
    {
      "op": "Dropout", 
      "name": "deeparpredictionnetwork0_deeparpredictionnetwork0_deeparpredictionnetwork0_lstm1_residualcellzoneoutdropout0", 
      "attrs": {"p": "0.1"}, 
      "inputs": [[724, 0, 0]]
    }, 
    {
      "op": "where", 
      "name": "deeparpredictionnetwork0_deeparpredictionnetwork0_deeparpredictionnetwork0_lstm1_residualcellzoneoutwhere0", 
      "inputs": [[725, 0, 0], [723, 0, 0], [708, 0, 0]]
    }, 
    {
      "op": "FullyConnected", 
      "name": "deeparpredictionnetwork0_lstm1_t5_h2h", 
      "attrs": {"num_hidden": "160"}, 
      "inputs": [[726, 0, 0], [637, 0, 0], [638, 0, 0]]
    }, 
    {
      "op": "elemwise_add", 
      "name": "deeparpredictionnetwork0_lstm1_t5_plus0", 
      "inputs": [[630, 0, 0], [727, 0, 0]]
    }, 
    {
      "op": "SliceChannel", 
      "name": "deeparpredictionnetwork0_lstm1_t5_slice", 
      "attrs": {"num_outputs": "4"}, 
      "inputs": [[728, 0, 0]]
    }, 
    {
      "op": "sigmoid", 
      "name": "deeparpredictionnetwork0_lstm1_t5_o", 
      "inputs": [[729, 3, 0]]
    }, 
    {
      "op": "sigmoid", 
      "name": "deeparpredictionnetwork0_lstm1_t5_f", 
      "inputs": [[729, 1, 0]]
    }, 
    {
      "op": "ones_like", 
      "name": "deeparpredictionnetwork0_deeparpredictionnetwork0_deeparpredictionnetwork0_lstm1_residualcellzoneoutones_like1", 
      "inputs": [[721, 0, 0]]
    }, 
    {
      "op": "Dropout", 
      "name": "deeparpredictionnetwork0_deeparpredictionnetwork0_deeparpredictionnetwork0_lstm1_residualcellzoneoutdropout1", 
      "attrs": {"p": "0.1"}, 
      "inputs": [[732, 0, 0]]
    }, 
    {
      "op": "where", 
      "name": "deeparpredictionnetwork0_deeparpredictionnetwork0_deeparpredictionnetwork0_lstm1_residualcellzoneoutwhere1", 
      "inputs": [[733, 0, 0], [721, 0, 0], [716, 0, 0]]
    }, 
    {
      "op": "elemwise_mul", 
      "name": "deeparpredictionnetwork0_lstm1_t5_mul0", 
      "inputs": [[731, 0, 0], [734, 0, 0]]
    }, 
    {
      "op": "sigmoid", 
      "name": "deeparpredictionnetwork0_lstm1_t5_i", 
      "inputs": [[729, 0, 0]]
    }, 
    {
      "op": "tanh", 
      "name": "deeparpredictionnetwork0_lstm1_t5_c", 
      "inputs": [[729, 2, 0]]
    }, 
    {
      "op": "elemwise_mul", 
      "name": "deeparpredictionnetwork0_lstm1_t5_mul1", 
      "inputs": [[736, 0, 0], [737, 0, 0]]
    }, 
    {
      "op": "elemwise_add", 
      "name": "deeparpredictionnetwork0_lstm1_t5_state", 
      "inputs": [[735, 0, 0], [738, 0, 0]]
    }, 
    {
      "op": "Activation", 
      "name": "deeparpredictionnetwork0_lstm1_t5_activation0", 
      "attrs": {"act_type": "tanh"}, 
      "inputs": [[739, 0, 0]]
    }, 
    {
      "op": "elemwise_mul", 
      "name": "deeparpredictionnetwork0_lstm1_t5_out", 
      "inputs": [[730, 0, 0], [740, 0, 0]]
    }, 
    {
      "op": "ones_like", 
      "name": "deeparpredictionnetwork0_deeparpredictionnetwork0_deeparpredictionnetwork0_lstm1_residualcellzoneoutones_like0", 
      "inputs": [[741, 0, 0]]
    }, 
    {
      "op": "Dropout", 
      "name": "deeparpredictionnetwork0_deeparpredictionnetwork0_deeparpredictionnetwork0_lstm1_residualcellzoneoutdropout0", 
      "attrs": {"p": "0.1"}, 
      "inputs": [[742, 0, 0]]
    }, 
    {
      "op": "where", 
      "name": "deeparpredictionnetwork0_deeparpredictionnetwork0_deeparpredictionnetwork0_lstm1_residualcellzoneoutwhere0", 
      "inputs": [[743, 0, 0], [741, 0, 0], [726, 0, 0]]
    }, 
    {
      "op": "FullyConnected", 
      "name": "deeparpredictionnetwork0_lstm1_t6_h2h", 
      "attrs": {"num_hidden": "160"}, 
      "inputs": [[744, 0, 0], [637, 0, 0], [638, 0, 0]]
    }, 
    {
      "op": "elemwise_add", 
      "name": "deeparpredictionnetwork0_lstm1_t6_plus0", 
      "inputs": [[629, 0, 0], [745, 0, 0]]
    }, 
    {
      "op": "SliceChannel", 
      "name": "deeparpredictionnetwork0_lstm1_t6_slice", 
      "attrs": {"num_outputs": "4"}, 
      "inputs": [[746, 0, 0]]
    }, 
    {
      "op": "sigmoid", 
      "name": "deeparpredictionnetwork0_lstm1_t6_o", 
      "inputs": [[747, 3, 0]]
    }, 
    {
      "op": "sigmoid", 
      "name": "deeparpredictionnetwork0_lstm1_t6_f", 
      "inputs": [[747, 1, 0]]
    }, 
    {
      "op": "ones_like", 
      "name": "deeparpredictionnetwork0_deeparpredictionnetwork0_deeparpredictionnetwork0_lstm1_residualcellzoneoutones_like1", 
      "inputs": [[739, 0, 0]]
    }, 
    {
      "op": "Dropout", 
      "name": "deeparpredictionnetwork0_deeparpredictionnetwork0_deeparpredictionnetwork0_lstm1_residualcellzoneoutdropout1", 
      "attrs": {"p": "0.1"}, 
      "inputs": [[750, 0, 0]]
    }, 
    {
      "op": "where", 
      "name": "deeparpredictionnetwork0_deeparpredictionnetwork0_deeparpredictionnetwork0_lstm1_residualcellzoneoutwhere1", 
      "inputs": [[751, 0, 0], [739, 0, 0], [734, 0, 0]]
    }, 
    {
      "op": "elemwise_mul", 
      "name": "deeparpredictionnetwork0_lstm1_t6_mul0", 
      "inputs": [[749, 0, 0], [752, 0, 0]]
    }, 
    {
      "op": "sigmoid", 
      "name": "deeparpredictionnetwork0_lstm1_t6_i", 
      "inputs": [[747, 0, 0]]
    }, 
    {
      "op": "tanh", 
      "name": "deeparpredictionnetwork0_lstm1_t6_c", 
      "inputs": [[747, 2, 0]]
    }, 
    {
      "op": "elemwise_mul", 
      "name": "deeparpredictionnetwork0_lstm1_t6_mul1", 
      "inputs": [[754, 0, 0], [755, 0, 0]]
    }, 
    {
      "op": "elemwise_add", 
      "name": "deeparpredictionnetwork0_lstm1_t6_state", 
      "inputs": [[753, 0, 0], [756, 0, 0]]
    }, 
    {
      "op": "Activation", 
      "name": "deeparpredictionnetwork0_lstm1_t6_activation0", 
      "attrs": {"act_type": "tanh"}, 
      "inputs": [[757, 0, 0]]
    }, 
    {
      "op": "elemwise_mul", 
      "name": "deeparpredictionnetwork0_lstm1_t6_out", 
      "inputs": [[748, 0, 0], [758, 0, 0]]
    }, 
    {
      "op": "ones_like", 
      "name": "deeparpredictionnetwork0_deeparpredictionnetwork0_deeparpredictionnetwork0_lstm1_residualcellzoneoutones_like0", 
      "inputs": [[759, 0, 0]]
    }, 
    {
      "op": "Dropout", 
      "name": "deeparpredictionnetwork0_deeparpredictionnetwork0_deeparpredictionnetwork0_lstm1_residualcellzoneoutdropout0", 
      "attrs": {"p": "0.1"}, 
      "inputs": [[760, 0, 0]]
    }, 
    {
      "op": "where", 
      "name": "deeparpredictionnetwork0_deeparpredictionnetwork0_deeparpredictionnetwork0_lstm1_residualcellzoneoutwhere0", 
      "inputs": [[761, 0, 0], [759, 0, 0], [744, 0, 0]]
    }, 
    {
      "op": "FullyConnected", 
      "name": "deeparpredictionnetwork0_lstm1_t7_h2h", 
      "attrs": {"num_hidden": "160"}, 
      "inputs": [[762, 0, 0], [637, 0, 0], [638, 0, 0]]
    }, 
    {
      "op": "elemwise_add", 
      "name": "deeparpredictionnetwork0_lstm1_t7_plus0", 
      "inputs": [[628, 0, 0], [763, 0, 0]]
    }, 
    {
      "op": "SliceChannel", 
      "name": "deeparpredictionnetwork0_lstm1_t7_slice", 
      "attrs": {"num_outputs": "4"}, 
      "inputs": [[764, 0, 0]]
    }, 
    {
      "op": "sigmoid", 
      "name": "deeparpredictionnetwork0_lstm1_t7_o", 
      "inputs": [[765, 3, 0]]
    }, 
    {
      "op": "sigmoid", 
      "name": "deeparpredictionnetwork0_lstm1_t7_f", 
      "inputs": [[765, 1, 0]]
    }, 
    {
      "op": "ones_like", 
      "name": "deeparpredictionnetwork0_deeparpredictionnetwork0_deeparpredictionnetwork0_lstm1_residualcellzoneoutones_like1", 
      "inputs": [[757, 0, 0]]
    }, 
    {
      "op": "Dropout", 
      "name": "deeparpredictionnetwork0_deeparpredictionnetwork0_deeparpredictionnetwork0_lstm1_residualcellzoneoutdropout1", 
      "attrs": {"p": "0.1"}, 
      "inputs": [[768, 0, 0]]
    }, 
    {
      "op": "where", 
      "name": "deeparpredictionnetwork0_deeparpredictionnetwork0_deeparpredictionnetwork0_lstm1_residualcellzoneoutwhere1", 
      "inputs": [[769, 0, 0], [757, 0, 0], [752, 0, 0]]
    }, 
    {
      "op": "elemwise_mul", 
      "name": "deeparpredictionnetwork0_lstm1_t7_mul0", 
      "inputs": [[767, 0, 0], [770, 0, 0]]
    }, 
    {
      "op": "sigmoid", 
      "name": "deeparpredictionnetwork0_lstm1_t7_i", 
      "inputs": [[765, 0, 0]]
    }, 
    {
      "op": "tanh", 
      "name": "deeparpredictionnetwork0_lstm1_t7_c", 
      "inputs": [[765, 2, 0]]
    }, 
    {
      "op": "elemwise_mul", 
      "name": "deeparpredictionnetwork0_lstm1_t7_mul1", 
      "inputs": [[772, 0, 0], [773, 0, 0]]
    }, 
    {
      "op": "elemwise_add", 
      "name": "deeparpredictionnetwork0_lstm1_t7_state", 
      "inputs": [[771, 0, 0], [774, 0, 0]]
    }, 
    {
      "op": "Activation", 
      "name": "deeparpredictionnetwork0_lstm1_t7_activation0", 
      "attrs": {"act_type": "tanh"}, 
      "inputs": [[775, 0, 0]]
    }, 
    {
      "op": "elemwise_mul", 
      "name": "deeparpredictionnetwork0_lstm1_t7_out", 
      "inputs": [[766, 0, 0], [776, 0, 0]]
    }, 
    {
      "op": "ones_like", 
      "name": "deeparpredictionnetwork0_deeparpredictionnetwork0_deeparpredictionnetwork0_lstm1_residualcellzoneoutones_like0", 
      "inputs": [[777, 0, 0]]
    }, 
    {
      "op": "Dropout", 
      "name": "deeparpredictionnetwork0_deeparpredictionnetwork0_deeparpredictionnetwork0_lstm1_residualcellzoneoutdropout0", 
      "attrs": {"p": "0.1"}, 
      "inputs": [[778, 0, 0]]
    }, 
    {
      "op": "where", 
      "name": "deeparpredictionnetwork0_deeparpredictionnetwork0_deeparpredictionnetwork0_lstm1_residualcellzoneoutwhere0", 
      "inputs": [[779, 0, 0], [777, 0, 0], [762, 0, 0]]
    }, 
    {
      "op": "FullyConnected", 
      "name": "deeparpredictionnetwork0_lstm1_t8_h2h", 
      "attrs": {"num_hidden": "160"}, 
      "inputs": [[780, 0, 0], [637, 0, 0], [638, 0, 0]]
    }, 
    {
      "op": "elemwise_add", 
      "name": "deeparpredictionnetwork0_lstm1_t8_plus0", 
      "inputs": [[627, 0, 0], [781, 0, 0]]
    }, 
    {
      "op": "SliceChannel", 
      "name": "deeparpredictionnetwork0_lstm1_t8_slice", 
      "attrs": {"num_outputs": "4"}, 
      "inputs": [[782, 0, 0]]
    }, 
    {
      "op": "sigmoid", 
      "name": "deeparpredictionnetwork0_lstm1_t8_o", 
      "inputs": [[783, 3, 0]]
    }, 
    {
      "op": "sigmoid", 
      "name": "deeparpredictionnetwork0_lstm1_t8_f", 
      "inputs": [[783, 1, 0]]
    }, 
    {
      "op": "ones_like", 
      "name": "deeparpredictionnetwork0_deeparpredictionnetwork0_deeparpredictionnetwork0_lstm1_residualcellzoneoutones_like1", 
      "inputs": [[775, 0, 0]]
    }, 
    {
      "op": "Dropout", 
      "name": "deeparpredictionnetwork0_deeparpredictionnetwork0_deeparpredictionnetwork0_lstm1_residualcellzoneoutdropout1", 
      "attrs": {"p": "0.1"}, 
      "inputs": [[786, 0, 0]]
    }, 
    {
      "op": "where", 
      "name": "deeparpredictionnetwork0_deeparpredictionnetwork0_deeparpredictionnetwork0_lstm1_residualcellzoneoutwhere1", 
      "inputs": [[787, 0, 0], [775, 0, 0], [770, 0, 0]]
    }, 
    {
      "op": "elemwise_mul", 
      "name": "deeparpredictionnetwork0_lstm1_t8_mul0", 
      "inputs": [[785, 0, 0], [788, 0, 0]]
    }, 
    {
      "op": "sigmoid", 
      "name": "deeparpredictionnetwork0_lstm1_t8_i", 
      "inputs": [[783, 0, 0]]
    }, 
    {
      "op": "tanh", 
      "name": "deeparpredictionnetwork0_lstm1_t8_c", 
      "inputs": [[783, 2, 0]]
    }, 
    {
      "op": "elemwise_mul", 
      "name": "deeparpredictionnetwork0_lstm1_t8_mul1", 
      "inputs": [[790, 0, 0], [791, 0, 0]]
    }, 
    {
      "op": "elemwise_add", 
      "name": "deeparpredictionnetwork0_lstm1_t8_state", 
      "inputs": [[789, 0, 0], [792, 0, 0]]
    }, 
    {
      "op": "Activation", 
      "name": "deeparpredictionnetwork0_lstm1_t8_activation0", 
      "attrs": {"act_type": "tanh"}, 
      "inputs": [[793, 0, 0]]
    }, 
    {
      "op": "elemwise_mul", 
      "name": "deeparpredictionnetwork0_lstm1_t8_out", 
      "inputs": [[784, 0, 0], [794, 0, 0]]
    }, 
    {
      "op": "ones_like", 
      "name": "deeparpredictionnetwork0_deeparpredictionnetwork0_deeparpredictionnetwork0_lstm1_residualcellzoneoutones_like0", 
      "inputs": [[795, 0, 0]]
    }, 
    {
      "op": "Dropout", 
      "name": "deeparpredictionnetwork0_deeparpredictionnetwork0_deeparpredictionnetwork0_lstm1_residualcellzoneoutdropout0", 
      "attrs": {"p": "0.1"}, 
      "inputs": [[796, 0, 0]]
    }, 
    {
      "op": "where", 
      "name": "deeparpredictionnetwork0_deeparpredictionnetwork0_deeparpredictionnetwork0_lstm1_residualcellzoneoutwhere0", 
      "inputs": [[797, 0, 0], [795, 0, 0], [780, 0, 0]]
    }, 
    {
      "op": "FullyConnected", 
      "name": "deeparpredictionnetwork0_lstm1_t9_h2h", 
      "attrs": {"num_hidden": "160"}, 
      "inputs": [[798, 0, 0], [637, 0, 0], [638, 0, 0]]
    }, 
    {
      "op": "elemwise_add", 
      "name": "deeparpredictionnetwork0_lstm1_t9_plus0", 
      "inputs": [[626, 0, 0], [799, 0, 0]]
    }, 
    {
      "op": "SliceChannel", 
      "name": "deeparpredictionnetwork0_lstm1_t9_slice", 
      "attrs": {"num_outputs": "4"}, 
      "inputs": [[800, 0, 0]]
    }, 
    {
      "op": "sigmoid", 
      "name": "deeparpredictionnetwork0_lstm1_t9_o", 
      "inputs": [[801, 3, 0]]
    }, 
    {
      "op": "sigmoid", 
      "name": "deeparpredictionnetwork0_lstm1_t9_f", 
      "inputs": [[801, 1, 0]]
    }, 
    {
      "op": "ones_like", 
      "name": "deeparpredictionnetwork0_deeparpredictionnetwork0_deeparpredictionnetwork0_lstm1_residualcellzoneoutones_like1", 
      "inputs": [[793, 0, 0]]
    }, 
    {
      "op": "Dropout", 
      "name": "deeparpredictionnetwork0_deeparpredictionnetwork0_deeparpredictionnetwork0_lstm1_residualcellzoneoutdropout1", 
      "attrs": {"p": "0.1"}, 
      "inputs": [[804, 0, 0]]
    }, 
    {
      "op": "where", 
      "name": "deeparpredictionnetwork0_deeparpredictionnetwork0_deeparpredictionnetwork0_lstm1_residualcellzoneoutwhere1", 
      "inputs": [[805, 0, 0], [793, 0, 0], [788, 0, 0]]
    }, 
    {
      "op": "elemwise_mul", 
      "name": "deeparpredictionnetwork0_lstm1_t9_mul0", 
      "inputs": [[803, 0, 0], [806, 0, 0]]
    }, 
    {
      "op": "sigmoid", 
      "name": "deeparpredictionnetwork0_lstm1_t9_i", 
      "inputs": [[801, 0, 0]]
    }, 
    {
      "op": "tanh", 
      "name": "deeparpredictionnetwork0_lstm1_t9_c", 
      "inputs": [[801, 2, 0]]
    }, 
    {
      "op": "elemwise_mul", 
      "name": "deeparpredictionnetwork0_lstm1_t9_mul1", 
      "inputs": [[808, 0, 0], [809, 0, 0]]
    }, 
    {
      "op": "elemwise_add", 
      "name": "deeparpredictionnetwork0_lstm1_t9_state", 
      "inputs": [[807, 0, 0], [810, 0, 0]]
    }, 
    {
      "op": "Activation", 
      "name": "deeparpredictionnetwork0_lstm1_t9_activation0", 
      "attrs": {"act_type": "tanh"}, 
      "inputs": [[811, 0, 0]]
    }, 
    {
      "op": "elemwise_mul", 
      "name": "deeparpredictionnetwork0_lstm1_t9_out", 
      "inputs": [[802, 0, 0], [812, 0, 0]]
    }, 
    {
      "op": "ones_like", 
      "name": "deeparpredictionnetwork0_deeparpredictionnetwork0_deeparpredictionnetwork0_lstm1_residualcellzoneoutones_like0", 
      "inputs": [[813, 0, 0]]
    }, 
    {
      "op": "Dropout", 
      "name": "deeparpredictionnetwork0_deeparpredictionnetwork0_deeparpredictionnetwork0_lstm1_residualcellzoneoutdropout0", 
      "attrs": {"p": "0.1"}, 
      "inputs": [[814, 0, 0]]
    }, 
    {
      "op": "where", 
      "name": "deeparpredictionnetwork0_deeparpredictionnetwork0_deeparpredictionnetwork0_lstm1_residualcellzoneoutwhere0", 
      "inputs": [[815, 0, 0], [813, 0, 0], [798, 0, 0]]
    }, 
    {
      "op": "FullyConnected", 
      "name": "deeparpredictionnetwork0_lstm1_t10_h2h", 
      "attrs": {"num_hidden": "160"}, 
      "inputs": [[816, 0, 0], [637, 0, 0], [638, 0, 0]]
    }, 
    {
      "op": "elemwise_add", 
      "name": "deeparpredictionnetwork0_lstm1_t10_plus0", 
      "inputs": [[625, 0, 0], [817, 0, 0]]
    }, 
    {
      "op": "SliceChannel", 
      "name": "deeparpredictionnetwork0_lstm1_t10_slice", 
      "attrs": {"num_outputs": "4"}, 
      "inputs": [[818, 0, 0]]
    }, 
    {
      "op": "sigmoid", 
      "name": "deeparpredictionnetwork0_lstm1_t10_o", 
      "inputs": [[819, 3, 0]]
    }, 
    {
      "op": "sigmoid", 
      "name": "deeparpredictionnetwork0_lstm1_t10_f", 
      "inputs": [[819, 1, 0]]
    }, 
    {
      "op": "ones_like", 
      "name": "deeparpredictionnetwork0_deeparpredictionnetwork0_deeparpredictionnetwork0_lstm1_residualcellzoneoutones_like1", 
      "inputs": [[811, 0, 0]]
    }, 
    {
      "op": "Dropout", 
      "name": "deeparpredictionnetwork0_deeparpredictionnetwork0_deeparpredictionnetwork0_lstm1_residualcellzoneoutdropout1", 
      "attrs": {"p": "0.1"}, 
      "inputs": [[822, 0, 0]]
    }, 
    {
      "op": "where", 
      "name": "deeparpredictionnetwork0_deeparpredictionnetwork0_deeparpredictionnetwork0_lstm1_residualcellzoneoutwhere1", 
      "inputs": [[823, 0, 0], [811, 0, 0], [806, 0, 0]]
    }, 
    {
      "op": "elemwise_mul", 
      "name": "deeparpredictionnetwork0_lstm1_t10_mul0", 
      "inputs": [[821, 0, 0], [824, 0, 0]]
    }, 
    {
      "op": "sigmoid", 
      "name": "deeparpredictionnetwork0_lstm1_t10_i", 
      "inputs": [[819, 0, 0]]
    }, 
    {
      "op": "tanh", 
      "name": "deeparpredictionnetwork0_lstm1_t10_c", 
      "inputs": [[819, 2, 0]]
    }, 
    {
      "op": "elemwise_mul", 
      "name": "deeparpredictionnetwork0_lstm1_t10_mul1", 
      "inputs": [[826, 0, 0], [827, 0, 0]]
    }, 
    {
      "op": "elemwise_add", 
      "name": "deeparpredictionnetwork0_lstm1_t10_state", 
      "inputs": [[825, 0, 0], [828, 0, 0]]
    }, 
    {
      "op": "Activation", 
      "name": "deeparpredictionnetwork0_lstm1_t10_activation0", 
      "attrs": {"act_type": "tanh"}, 
      "inputs": [[829, 0, 0]]
    }, 
    {
      "op": "elemwise_mul", 
      "name": "deeparpredictionnetwork0_lstm1_t10_out", 
      "inputs": [[820, 0, 0], [830, 0, 0]]
    }, 
    {
      "op": "ones_like", 
      "name": "deeparpredictionnetwork0_deeparpredictionnetwork0_deeparpredictionnetwork0_lstm1_residualcellzoneoutones_like0", 
      "inputs": [[831, 0, 0]]
    }, 
    {
      "op": "Dropout", 
      "name": "deeparpredictionnetwork0_deeparpredictionnetwork0_deeparpredictionnetwork0_lstm1_residualcellzoneoutdropout0", 
      "attrs": {"p": "0.1"}, 
      "inputs": [[832, 0, 0]]
    }, 
    {
      "op": "where", 
      "name": "deeparpredictionnetwork0_deeparpredictionnetwork0_deeparpredictionnetwork0_lstm1_residualcellzoneoutwhere0", 
      "inputs": [[833, 0, 0], [831, 0, 0], [816, 0, 0]]
    }, 
    {
      "op": "FullyConnected", 
      "name": "deeparpredictionnetwork0_lstm1_t11_h2h", 
      "attrs": {"num_hidden": "160"}, 
      "inputs": [[834, 0, 0], [637, 0, 0], [638, 0, 0]]
    }, 
    {
      "op": "elemwise_add", 
      "name": "deeparpredictionnetwork0_lstm1_t11_plus0", 
      "inputs": [[624, 0, 0], [835, 0, 0]]
    }, 
    {
      "op": "SliceChannel", 
      "name": "deeparpredictionnetwork0_lstm1_t11_slice", 
      "attrs": {"num_outputs": "4"}, 
      "inputs": [[836, 0, 0]]
    }, 
    {
      "op": "sigmoid", 
      "name": "deeparpredictionnetwork0_lstm1_t11_o", 
      "inputs": [[837, 3, 0]]
    }, 
    {
      "op": "sigmoid", 
      "name": "deeparpredictionnetwork0_lstm1_t11_f", 
      "inputs": [[837, 1, 0]]
    }, 
    {
      "op": "ones_like", 
      "name": "deeparpredictionnetwork0_deeparpredictionnetwork0_deeparpredictionnetwork0_lstm1_residualcellzoneoutones_like1", 
      "inputs": [[829, 0, 0]]
    }, 
    {
      "op": "Dropout", 
      "name": "deeparpredictionnetwork0_deeparpredictionnetwork0_deeparpredictionnetwork0_lstm1_residualcellzoneoutdropout1", 
      "attrs": {"p": "0.1"}, 
      "inputs": [[840, 0, 0]]
    }, 
    {
      "op": "where", 
      "name": "deeparpredictionnetwork0_deeparpredictionnetwork0_deeparpredictionnetwork0_lstm1_residualcellzoneoutwhere1", 
      "inputs": [[841, 0, 0], [829, 0, 0], [824, 0, 0]]
    }, 
    {
      "op": "elemwise_mul", 
      "name": "deeparpredictionnetwork0_lstm1_t11_mul0", 
      "inputs": [[839, 0, 0], [842, 0, 0]]
    }, 
    {
      "op": "sigmoid", 
      "name": "deeparpredictionnetwork0_lstm1_t11_i", 
      "inputs": [[837, 0, 0]]
    }, 
    {
      "op": "tanh", 
      "name": "deeparpredictionnetwork0_lstm1_t11_c", 
      "inputs": [[837, 2, 0]]
    }, 
    {
      "op": "elemwise_mul", 
      "name": "deeparpredictionnetwork0_lstm1_t11_mul1", 
      "inputs": [[844, 0, 0], [845, 0, 0]]
    }, 
    {
      "op": "elemwise_add", 
      "name": "deeparpredictionnetwork0_lstm1_t11_state", 
      "inputs": [[843, 0, 0], [846, 0, 0]]
    }, 
    {
      "op": "Activation", 
      "name": "deeparpredictionnetwork0_lstm1_t11_activation0", 
      "attrs": {"act_type": "tanh"}, 
      "inputs": [[847, 0, 0]]
    }, 
    {
      "op": "elemwise_mul", 
      "name": "deeparpredictionnetwork0_lstm1_t11_out", 
      "inputs": [[838, 0, 0], [848, 0, 0]]
    }, 
    {
      "op": "ones_like", 
      "name": "deeparpredictionnetwork0_deeparpredictionnetwork0_deeparpredictionnetwork0_lstm1_residualcellzoneoutones_like0", 
      "inputs": [[849, 0, 0]]
    }, 
    {
      "op": "Dropout", 
      "name": "deeparpredictionnetwork0_deeparpredictionnetwork0_deeparpredictionnetwork0_lstm1_residualcellzoneoutdropout0", 
      "attrs": {"p": "0.1"}, 
      "inputs": [[850, 0, 0]]
    }, 
    {
      "op": "where", 
      "name": "deeparpredictionnetwork0_deeparpredictionnetwork0_deeparpredictionnetwork0_lstm1_residualcellzoneoutwhere0", 
      "inputs": [[851, 0, 0], [849, 0, 0], [834, 0, 0]]
    }, 
    {
      "op": "FullyConnected", 
      "name": "deeparpredictionnetwork0_lstm1_t12_h2h", 
      "attrs": {"num_hidden": "160"}, 
      "inputs": [[852, 0, 0], [637, 0, 0], [638, 0, 0]]
    }, 
    {
      "op": "elemwise_add", 
      "name": "deeparpredictionnetwork0_lstm1_t12_plus0", 
      "inputs": [[623, 0, 0], [853, 0, 0]]
    }, 
    {
      "op": "SliceChannel", 
      "name": "deeparpredictionnetwork0_lstm1_t12_slice", 
      "attrs": {"num_outputs": "4"}, 
      "inputs": [[854, 0, 0]]
    }, 
    {
      "op": "sigmoid", 
      "name": "deeparpredictionnetwork0_lstm1_t12_o", 
      "inputs": [[855, 3, 0]]
    }, 
    {
      "op": "sigmoid", 
      "name": "deeparpredictionnetwork0_lstm1_t12_f", 
      "inputs": [[855, 1, 0]]
    }, 
    {
      "op": "ones_like", 
      "name": "deeparpredictionnetwork0_deeparpredictionnetwork0_deeparpredictionnetwork0_lstm1_residualcellzoneoutones_like1", 
      "inputs": [[847, 0, 0]]
    }, 
    {
      "op": "Dropout", 
      "name": "deeparpredictionnetwork0_deeparpredictionnetwork0_deeparpredictionnetwork0_lstm1_residualcellzoneoutdropout1", 
      "attrs": {"p": "0.1"}, 
      "inputs": [[858, 0, 0]]
    }, 
    {
      "op": "where", 
      "name": "deeparpredictionnetwork0_deeparpredictionnetwork0_deeparpredictionnetwork0_lstm1_residualcellzoneoutwhere1", 
      "inputs": [[859, 0, 0], [847, 0, 0], [842, 0, 0]]
    }, 
    {
      "op": "elemwise_mul", 
      "name": "deeparpredictionnetwork0_lstm1_t12_mul0", 
      "inputs": [[857, 0, 0], [860, 0, 0]]
    }, 
    {
      "op": "sigmoid", 
      "name": "deeparpredictionnetwork0_lstm1_t12_i", 
      "inputs": [[855, 0, 0]]
    }, 
    {
      "op": "tanh", 
      "name": "deeparpredictionnetwork0_lstm1_t12_c", 
      "inputs": [[855, 2, 0]]
    }, 
    {
      "op": "elemwise_mul", 
      "name": "deeparpredictionnetwork0_lstm1_t12_mul1", 
      "inputs": [[862, 0, 0], [863, 0, 0]]
    }, 
    {
      "op": "elemwise_add", 
      "name": "deeparpredictionnetwork0_lstm1_t12_state", 
      "inputs": [[861, 0, 0], [864, 0, 0]]
    }, 
    {
      "op": "Activation", 
      "name": "deeparpredictionnetwork0_lstm1_t12_activation0", 
      "attrs": {"act_type": "tanh"}, 
      "inputs": [[865, 0, 0]]
    }, 
    {
      "op": "elemwise_mul", 
      "name": "deeparpredictionnetwork0_lstm1_t12_out", 
      "inputs": [[856, 0, 0], [866, 0, 0]]
    }, 
    {
      "op": "ones_like", 
      "name": "deeparpredictionnetwork0_deeparpredictionnetwork0_deeparpredictionnetwork0_lstm1_residualcellzoneoutones_like0", 
      "inputs": [[867, 0, 0]]
    }, 
    {
      "op": "Dropout", 
      "name": "deeparpredictionnetwork0_deeparpredictionnetwork0_deeparpredictionnetwork0_lstm1_residualcellzoneoutdropout0", 
      "attrs": {"p": "0.1"}, 
      "inputs": [[868, 0, 0]]
    }, 
    {
      "op": "where", 
      "name": "deeparpredictionnetwork0_deeparpredictionnetwork0_deeparpredictionnetwork0_lstm1_residualcellzoneoutwhere0", 
      "inputs": [[869, 0, 0], [867, 0, 0], [852, 0, 0]]
    }, 
    {
      "op": "FullyConnected", 
      "name": "deeparpredictionnetwork0_lstm1_t13_h2h", 
      "attrs": {"num_hidden": "160"}, 
      "inputs": [[870, 0, 0], [637, 0, 0], [638, 0, 0]]
    }, 
    {
      "op": "elemwise_add", 
      "name": "deeparpredictionnetwork0_lstm1_t13_plus0", 
      "inputs": [[622, 0, 0], [871, 0, 0]]
    }, 
    {
      "op": "SliceChannel", 
      "name": "deeparpredictionnetwork0_lstm1_t13_slice", 
…
      "inputs": [[3487, 0, 0]]
    }, 
    {
      "op": "slice_axis", 
      "name": "deeparpredictionnetwork0_slice_axis1026", 
      "attrs": {
        "axis": "1", 
        "begin": "23", 
        "end": "24"
      }, 
      "inputs": [[68, 0, 0]]
    }, 
    {
      "op": "Concat", 
      "name": "deeparpredictionnetwork0_concat48", 
      "attrs": {
        "dim": "-1", 
        "num_args": "3"
      }, 
      "inputs": [[3488, 0, 0], [3489, 0, 0], [79, 0, 0]]
    }, 
    {
      "op": "SliceChannel", 
      "name": "deeparpredictionnetwork0_split24", 
      "attrs": {
        "axis": "1", 
        "num_outputs": "1", 
        "squeeze_axis": "1"
      }, 
      "inputs": [[3490, 0, 0]]
    }, 
    {
      "op": "FullyConnected", 
      "name": "deeparpredictionnetwork0_lstm0_t0_i2h", 
      "attrs": {"num_hidden": "160"}, 
      "inputs": [[3491, 0, 0], [82, 0, 0], [83, 0, 0]]
    }, 
    {
      "op": "ones_like", 
      "name": "deeparpredictionnetwork0_deeparpredictionnetwork0_lstm0_zoneoutones_like0", 
      "inputs": [[3404, 0, 0]]
    }, 
    {
      "op": "Dropout", 
      "name": "deeparpredictionnetwork0_deeparpredictionnetwork0_lstm0_zoneoutdropout0", 
      "attrs": {"p": "0.1"}, 
      "inputs": [[3493, 0, 0]]
    }, 
    {
      "op": "where", 
      "name": "deeparpredictionnetwork0_deeparpredictionnetwork0_lstm0_zoneoutwhere0", 
      "inputs": [[3494, 0, 0], [3404, 0, 0], [3389, 0, 0]]
    }, 
    {
      "op": "FullyConnected", 
      "name": "deeparpredictionnetwork0_lstm0_t0_h2h", 
      "attrs": {"num_hidden": "160"}, 
      "inputs": [[3495, 0, 0], [160, 0, 0], [161, 0, 0]]
    }, 
    {
      "op": "elemwise_add", 
      "name": "deeparpredictionnetwork0_lstm0_t0_plus0", 
      "inputs": [[3492, 0, 0], [3496, 0, 0]]
    }, 
    {
      "op": "SliceChannel", 
      "name": "deeparpredictionnetwork0_lstm0_t0_slice", 
      "attrs": {"num_outputs": "4"}, 
      "inputs": [[3497, 0, 0]]
    }, 
    {
      "op": "sigmoid", 
      "name": "deeparpredictionnetwork0_lstm0_t0_o", 
      "inputs": [[3498, 3, 0]]
    }, 
    {
      "op": "sigmoid", 
      "name": "deeparpredictionnetwork0_lstm0_t0_f", 
      "inputs": [[3498, 1, 0]]
    }, 
    {
      "op": "ones_like", 
      "name": "deeparpredictionnetwork0_deeparpredictionnetwork0_lstm0_zoneoutones_like1", 
      "inputs": [[3402, 0, 0]]
    }, 
    {
      "op": "Dropout", 
      "name": "deeparpredictionnetwork0_deeparpredictionnetwork0_lstm0_zoneoutdropout1", 
      "attrs": {"p": "0.1"}, 
      "inputs": [[3501, 0, 0]]
    }, 
    {
      "op": "where", 
      "name": "deeparpredictionnetwork0_deeparpredictionnetwork0_lstm0_zoneoutwhere1", 
      "inputs": [[3502, 0, 0], [3402, 0, 0], [3397, 0, 0]]
    }, 
    {
      "op": "elemwise_mul", 
      "name": "deeparpredictionnetwork0_lstm0_t0_mul0", 
      "inputs": [[3500, 0, 0], [3503, 0, 0]]
    }, 
    {
      "op": "sigmoid", 
      "name": "deeparpredictionnetwork0_lstm0_t0_i", 
      "inputs": [[3498, 0, 0]]
    }, 
    {
      "op": "tanh", 
      "name": "deeparpredictionnetwork0_lstm0_t0_c", 
      "inputs": [[3498, 2, 0]]
    }, 
    {
      "op": "elemwise_mul", 
      "name": "deeparpredictionnetwork0_lstm0_t0_mul1", 
      "inputs": [[3505, 0, 0], [3506, 0, 0]]
    }, 
    {
      "op": "elemwise_add", 
      "name": "deeparpredictionnetwork0_lstm0_t0_state", 
      "inputs": [[3504, 0, 0], [3507, 0, 0]]
    }, 
    {
      "op": "Activation", 
      "name": "deeparpredictionnetwork0_lstm0_t0_activation0", 
      "attrs": {"act_type": "tanh"}, 
      "inputs": [[3508, 0, 0]]
    }, 
    {
      "op": "elemwise_mul", 
      "name": "deeparpredictionnetwork0_lstm0_t0_out", 
      "inputs": [[3499, 0, 0], [3509, 0, 0]]
    }, 
    {
      "op": "FullyConnected", 
      "name": "deeparpredictionnetwork0_lstm1_t0_i2h", 
      "attrs": {"num_hidden": "160"}, 
      "inputs": [[3510, 0, 0], [609, 0, 0], [610, 0, 0]]
    }, 
    {
      "op": "ones_like", 
      "name": "deeparpredictionnetwork0_deeparpredictionnetwork0_deeparpredictionnetwork0_lstm1_residualcellzoneoutones_like0", 
      "inputs": [[3423, 0, 0]]
    }, 
    {
      "op": "Dropout", 
      "name": "deeparpredictionnetwork0_deeparpredictionnetwork0_deeparpredictionnetwork0_lstm1_residualcellzoneoutdropout0", 
      "attrs": {"p": "0.1"}, 
      "inputs": [[3512, 0, 0]]
    }, 
    {
      "op": "where", 
      "name": "deeparpredictionnetwork0_deeparpredictionnetwork0_deeparpredictionnetwork0_lstm1_residualcellzoneoutwhere0", 
      "inputs": [[3513, 0, 0], [3423, 0, 0], [3408, 0, 0]]
    }, 
    {
      "op": "FullyConnected", 
      "name": "deeparpredictionnetwork0_lstm1_t0_h2h", 
      "attrs": {"num_hidden": "160"}, 
      "inputs": [[3514, 0, 0], [637, 0, 0], [638, 0, 0]]
    }, 
    {
      "op": "elemwise_add", 
      "name": "deeparpredictionnetwork0_lstm1_t0_plus0", 
      "inputs": [[3511, 0, 0], [3515, 0, 0]]
    }, 
    {
      "op": "SliceChannel", 
      "name": "deeparpredictionnetwork0_lstm1_t0_slice", 
      "attrs": {"num_outputs": "4"}, 
      "inputs": [[3516, 0, 0]]
    }, 
    {
      "op": "sigmoid", 
      "name": "deeparpredictionnetwork0_lstm1_t0_o", 
      "inputs": [[3517, 3, 0]]
    }, 
    {
      "op": "sigmoid", 
      "name": "deeparpredictionnetwork0_lstm1_t0_f", 
      "inputs": [[3517, 1, 0]]
    }, 
    {
      "op": "ones_like", 
      "name": "deeparpredictionnetwork0_deeparpredictionnetwork0_deeparpredictionnetwork0_lstm1_residualcellzoneoutones_like1", 
      "inputs": [[3421, 0, 0]]
    }, 
    {
      "op": "Dropout", 
      "name": "deeparpredictionnetwork0_deeparpredictionnetwork0_deeparpredictionnetwork0_lstm1_residualcellzoneoutdropout1", 
      "attrs": {"p": "0.1"}, 
      "inputs": [[3520, 0, 0]]
    }, 
    {
      "op": "where", 
      "name": "deeparpredictionnetwork0_deeparpredictionnetwork0_deeparpredictionnetwork0_lstm1_residualcellzoneoutwhere1", 
      "inputs": [[3521, 0, 0], [3421, 0, 0], [3416, 0, 0]]
    }, 
    {
      "op": "elemwise_mul", 
      "name": "deeparpredictionnetwork0_lstm1_t0_mul0", 
      "inputs": [[3519, 0, 0], [3522, 0, 0]]
    }, 
    {
      "op": "sigmoid", 
      "name": "deeparpredictionnetwork0_lstm1_t0_i", 
      "inputs": [[3517, 0, 0]]
    }, 
    {
      "op": "tanh", 
      "name": "deeparpredictionnetwork0_lstm1_t0_c", 
      "inputs": [[3517, 2, 0]]
    }, 
    {
      "op": "elemwise_mul", 
      "name": "deeparpredictionnetwork0_lstm1_t0_mul1", 
      "inputs": [[3524, 0, 0], [3525, 0, 0]]
    }, 
    {
      "op": "elemwise_add", 
      "name": "deeparpredictionnetwork0_lstm1_t0_state", 
      "inputs": [[3523, 0, 0], [3526, 0, 0]]
    }, 
    {
      "op": "Activation", 
      "name": "deeparpredictionnetwork0_lstm1_t0_activation0", 
      "attrs": {"act_type": "tanh"}, 
      "inputs": [[3527, 0, 0]]
    }, 
    {
      "op": "elemwise_mul", 
      "name": "deeparpredictionnetwork0_lstm1_t0_out", 
      "inputs": [[3518, 0, 0], [3528, 0, 0]]
    }, 
    {
      "op": "elemwise_add", 
      "name": "deeparpredictionnetwork0_deeparpredictionnetwork0_lstm1_residualcellt0_fwd", 
      "inputs": [[3529, 0, 0], [3510, 0, 0]]
    }, 
    {
      "op": "stack", 
      "name": "deeparpredictionnetwork0_stack49", 
      "attrs": {
        "axis": "1", 
        "num_args": "1"
      }, 
      "inputs": [[3530, 0, 0]]
    }, 
    {
      "op": "FullyConnected", 
      "name": "deeparpredictionnetwork0_None_distr_mu_fwd", 
      "attrs": {
        "flatten": "False", 
        "no_bias": "False", 
        "num_hidden": "1"
      }, 
      "inputs": [[3531, 0, 0], [1088, 0, 0], [1089, 0, 0]]
    }, 
    {
      "op": "squeeze", 
      "name": "deeparpredictionnetwork0_hybridlambda0_squeeze0", 
      "attrs": {"axis": "-1"}, 
      "inputs": [[3532, 0, 0]]
    }, 
    {
      "op": "FullyConnected", 
      "name": "deeparpredictionnetwork0_None_distr_nu_fwd", 
      "attrs": {
        "flatten": "False", 
        "no_bias": "False", 
        "num_hidden": "1"
      }, 
      "inputs": [[3531, 0, 0], [1092, 0, 0], [1093, 0, 0]]
    }, 
    {
      "op": "Activation", 
      "name": "deeparpredictionnetwork0_hybridlambda0_activation1", 
      "attrs": {"act_type": "softrelu"}, 
      "inputs": [[3534, 0, 0]]
    }, 
    {
      "op": "_plus_scalar", 
      "name": "deeparpredictionnetwork0_hybridlambda0__plusscalar0", 
      "attrs": {"scalar": "2.0"}, 
      "inputs": [[3535, 0, 0]]
    }, 
    {
      "op": "squeeze", 
      "name": "deeparpredictionnetwork0_hybridlambda0_squeeze2", 
      "attrs": {"axis": "-1"}, 
      "inputs": [[3536, 0, 0]]
    }, 
    {
      "op": "_div_scalar", 
      "name": "deeparpredictionnetwork0__divscalar23", 
      "attrs": {"scalar": "2.0"}, 
      "inputs": [[3537, 0, 0]]
    }, 
    {
      "op": "FullyConnected", 
      "name": "deeparpredictionnetwork0_None_distr_sigma_fwd", 
      "attrs": {
        "flatten": "False", 
        "no_bias": "False", 
        "num_hidden": "1"
      }, 
      "inputs": [[3531, 0, 0], [1099, 0, 0], [1100, 0, 0]]
    }, 
    {
      "op": "Activation", 
      "name": "deeparpredictionnetwork0_hybridlambda0_activation0", 
      "attrs": {"act_type": "softrelu"}, 
      "inputs": [[3539, 0, 0]]
    }, 
    {
      "op": "squeeze", 
      "name": "deeparpredictionnetwork0_hybridlambda0_squeeze1", 
      "attrs": {"axis": "-1"}, 
      "inputs": [[3540, 0, 0]]
    }, 
    {
      "op": "square", 
      "name": "deeparpredictionnetwork0_square23", 
      "inputs": [[3541, 0, 0]]
    }, 
    {
      "op": "elemwise_mul", 
      "name": "deeparpredictionnetwork0__mul23", 
      "inputs": [[3537, 0, 0], [3542, 0, 0]]
    }, 
    {
      "op": "_rdiv_scalar", 
      "name": "deeparpredictionnetwork0__rdivscalar46", 
      "attrs": {"scalar": "2.0"}, 
      "inputs": [[3543, 0, 0]]
    }, 
    {
      "op": "_sample_gamma", 
      "name": "deeparpredictionnetwork0_sample_gamma23", 
      "attrs": {"dtype": "float32"}, 
      "inputs": [[3538, 0, 0], [3544, 0, 0]]
    }, 
    {
      "op": "sqrt", 
      "name": "deeparpredictionnetwork0_sqrt23", 
      "inputs": [[3545, 0, 0]]
    }, 
    {
      "op": "_rdiv_scalar", 
      "name": "deeparpredictionnetwork0__rdivscalar47", 
      "attrs": {"scalar": "1.0"}, 
      "inputs": [[3546, 0, 0]]
    }, 
    {
      "op": "_sample_normal", 
      "name": "deeparpredictionnetwork0_sample_normal23", 
      "attrs": {"dtype": "float32"}, 
      "inputs": [[3533, 0, 0], [3547, 0, 0]]
    }, 
    {
      "op": "broadcast_mul", 
      "name": "deeparpredictionnetwork0_broadcast_mul23", 
      "inputs": [[3548, 0, 0], [63, 0, 0]]
    }, 
    {
      "op": "Concat", 
      "name": "deeparpredictionnetwork0_concat50", 
      "attrs": {
        "dim": "1", 
        "num_args": "24"
      }, 
      "inputs": [
        [1111, 0, 0], 
        [1217, 0, 0], 
        [1323, 0, 0], 
        [1429, 0, 0], 
        [1535, 0, 0], 
        [1641, 0, 0], 
        [1747, 0, 0], 
        [1853, 0, 0], 
        [1959, 0, 0], 
        [2065, 0, 0], 
        [2171, 0, 0], 
        [2277, 0, 0], 
        [2383, 0, 0], 
        [2489, 0, 0], 
        [2595, 0, 0], 
        [2701, 0, 0], 
        [2807, 0, 0], 
        [2913, 0, 0], 
        [3019, 0, 0], 
        [3125, 0, 0], 
        [3231, 0, 0], 
        [3337, 0, 0], 
        [3443, 0, 0], 
        [3549, 0, 0]
      ]
    }, 
    {
      "op": "Reshape", 
      "name": "deeparpredictionnetwork0_reshape25", 
      "attrs": {"shape": "(-1, 100, 24)"}, 
      "inputs": [[3550, 0, 0]]
    }
  ], 
  "arg_nodes": [
    0, 
    45, 
    67, 
    70, 
    72, 
    75, 
    82, 
    83, 
    129, 
    160, 
    161, 
    609, 
    610, 
    637, 
    638, 
    1088, 
    1089, 
    1092, 
    1093, 
    1099, 
    1100
  ], 
  "node_row_ptr": [
    0, 
    1, 
    2, 
    3, 
    4, 
    5, 
    6, 
    7, 
    8, 
    9, 
    10, 
    11, 
    12, 
    13, 
    14, 
    15, 
    16, 
    17, 
    18, 
    19, 
    20, 
    21, 
    22, 
    23, 
    24, 
    25, 
    26, 
    27, 
    28, 
    29, 
    30, 
    31, 
    32, 
    33, 
    34, 
    35, 
    36, 
    37, 
    38, 
    39, 
    40, 
    41, 
    42, 
    43, 
    44, 
    45, 
    46, 
    47, 
    48, 
    49, 
    50, 
    51, 
    52, 
    53, 
    54, 
    55, 
    56, 
    57, 
    58, 
    59, 
    60, 
    61, 
    62, 
    63, 
    64, 
    65, 
    66, 
    67, 
    68, 
    69, 
    70, 
    71, 
    72, 
    73, 
    74, 
    75, 
    76, 
    77, 
    78, 
    79, 
    80, 
    81, 
    82, 
    83, 
    84, 
    85, 
    86, 
    87, 
    88, 
    89, 
    90, 
    91, 
    92, 
    93, 
    94, 
    95, 
    96, 
    97, 
    98, 
    99, 
    100, 
    101, 
    102, 
    103, 
    104, 
    105, 
    106, 
    107, 
    108, 
    109, 
    110, 
    111, 
    112, 
    113, 
    114, 
    115, 
    116, 
    117, 
    118, 
    119, 
    120, 
    121, 
    122, 
    123, 
    124, 
    125, 
    126, 
    127, 
    128, 
    129, 
    130, 
    131, 
    132, 
    133, 
    134, 
    158, 
    159, 
    160, 
    161, 
    162, 
    163, 
    164, 
    165, 
    166, 
    167, 
    168, 
    169, 
    170, 
    171, 
    172, 
    173, 
    174, 
    175, 
    176, 
    177, 
    178, 
    179, 
    180, 
    181, 
    182, 
    183, 
    184, 
    185, 
    186, 
    187, 
    191, 
    192, 
    193, 
    194, 
    195, 
    196, 
    197, 
    198, 
    199, 
    200, 
    201, 
    202, 
    204, 
    205, 
    206, 
    207, 
    211, 
    212, 
    213, 
    214, 
    216, 
    217, 
    218, 
    219, 
    220, 
    221, 
    222, 
    223, 
    224, 
    225, 
    227, 
    228, 
    229, 
    230, 
    234, 
    235, 
    236, 
    237, 
    239, 
    240, 
    241, 
    242, 
    243, 
    244, 
    245, 
    246, 
    247, 
    248, 
    250, 
    251, 
    252, 
    253, 
    257, 
    258, 
    259, 
    260, 
    262, 
    263, 
    264, 
    265, 
    266, 
    267, 
    268, 
    269, 
    270, 
    271, 
    273, 
    274, 
    275, 
    276, 
    280, 
    281, 
    282, 
    283, 
    285, 
    286, 
    287, 
    288, 
    289, 
    290, 
    291, 
    292, 
    293, 
    294, 
    296, 
    297, 
    298, 
    299, 
    303, 
    304, 
    305, 
    306, 
    308, 
    309, 
    310, 
    311, 
    312, 
    313, 
    314, 
    315, 
    316, 
    317, 
    319, 
    320, 
    321, 
    322, 
    326, 
    327, 
    328, 
    329, 
    331, 
    332, 
    333, 
    334, 
    335, 
    336, 
    337, 
    338, 
    339, 
    340, 
    342, 
    343, 
    344, 
    345, 
    349, 
    350, 
    351, 
    352, 
    354, 
    355, 
    356, 
    357, 
    358, 
    359, 
    360, 
    361, 
    362, 
    363, 
    365, 
    366, 
    367, 
    368, 
    372, 
    373, 
    374, 
    375, 
    377, 
    378, 
    379, 
    380, 
    381, 
    382, 
    383, 
    384, 
    385, 
    386, 
    388, 
    389, 
    390, 
    391, 
    395, 
    396, 
    397, 
    398, 
    400, 
    401, 
    402, 
    403, 
    404, 
    405, 
    406, 
    407, 
    408, 
    409, 
    411, 
    412, 
    413, 
    414, 
    418, 
    419, 
    420, 
    421, 
    423, 
    424, 
    425, 
    426, 
    427, 
    428, 
    429, 
    430, 
    431, 
    432, 
    434, 
    435, 
    436, 
    437, 
    441, 
    442, 
    443, 
    444, 
    446, 
    447, 
    448, 
    449, 
    450, 
    451, 
    452, 
    453, 
    454, 
    455, 
    457, 
    458, 
    459, 
    460, 
    464, 
    465, 
    466, 
    467, 
    469, 
    470, 
    471, 
    472, 
    473, 
    474, 
    475, 
    476, 
    477, 
    478, 
    480, 
    481, 
    482, 
    483, 
    487, 
    488, 
    489, 
    490, 
    492, 
    493, 
    494, 
    495, 
    496, 
    497, 
    498, 
    499, 
    500, 
    501, 
    503, 
    504, 
    505, 
    506, 
    510, 
    511, 
    512, 
    513, 
    515, 
    516, 
    517, 
    518, 
    519, 
    520, 
    521, 
    522, 
    523, 
    524, 
    526, 
    527, 
    528, 
    529, 
    533, 
    534, 
    535, 
    536, 
    538, 
    539, 
    540, 
    541, 
    542, 
    543, 
    544, 
    545, 
    546, 
    547, 
    549, 
    550, 
    551, 
    552, 
    556, 
    557, 
    558, 
    559, 
    561, 
    562, 
    563, 
    564, 
    565, 
    566, 
    567, 
    568, 
    569, 
    570, 
    572, 
    573, 
    574, 
    575, 
    579, 
    580, 
    581, 
    582, 
    584, 
    585, 
    586, 
    587, 
    588, 
    589, 
    590, 
    591, 
    592, 
    593, 
    595, 
    596, 
    597, 
    598, 
    602, 
    603, 
    604, 
    605, 
    607, 
    608, 
    609, 
    610, 
    611, 
    612, 
    613, 
    614, 
    615, 
    616, 
    618, 
    619, 
    620, 
    621, 
    625, 
    626, 
    627, 
    628, 
    630, 
    631, 
    632, 
    633, 
    634, 
    635, 
    636, 
    637, 
    638, 
    639, 
    641, 
    642, 
    643, 
    644, 
    648, 
    649, 
    650, 
    651, 
    653, 
    654, 
    655, 
    656, 
    657, 
    658, 
    659, 
    660, 
    661, 
    662, 
    664, 
    665, 
    666, 
    667, 
    671, 
    672, 
    673, 
    674, 
    676, 
    677, 
    678, 
    679, 
    680, 
    681, 
    682, 
    683, 
    684, 
    685, 
    687, 
    688, 
    689, 
    690, 
    694, 
    695, 
    696, 
    697, 
    699, 
    700, 
    701, 
    702, 
    703, 
    704, 
    705, 
    706, 
    707, 
    708, 
    710, 
    711, 
    712, 
    713, 
    717, 
    718, 
    719, 
    720, 
    722, 
    723, 
    724, 
    725, 
    726, 
    727, 
    728, 
    729, 
    730, 
    731, 
    733, 
    734, 
    735, 
    736, 
    737, 
    741, 
    742, 
    743, 
    744, 
    746, 
    747, 
    748, 
    749, 
    750, 
    751, 
    752, 
    753, 
    754, 
    755, 
    756, 
    757, 
    758, 
    759, 
    760, 
    761, 
    762, 
    763, 
    764, 
    765, 
    766, 
    767, 
    768, 
    769, 
    770, 
    771, 
    772, 
    773, 
    774, 
    775, 
    776, 
    777, 
    778, 
    779, 
    780, 
    781, 
    782, 
    783, 
    784, 
    785, 
    786, 
    787, 
    791, 
    792, 
    793, 
    794, 
    795, 
    796, 
    797, 
    798, 
    799, 
    800, 
    801, 
    802, 
    804, 
    805, 
    806, 
    807, 
    811, 
    812, 
    813, 
    814, 
    816, 
    817, 
    818, 
    819, 
    820, 
    821, 
    822, 
    823, 
    824, 
    825, 
    827, 
    828, 
    829, 
    830, 
    834, 
    835, 
    836, 
    837, 
    839, 
    840, 
    841, 
    842, 
    843, 
    844, 
    845, 
    846, 
    847, 
    848, 
    850, 
    851, 
    852, 
    853, 
    857, 
    858, 
    859, 
    860, 
    862, 
    863, 
    864, 
    865, 
    866, 
    867, 
    868, 
    869, 
    870, 
    871, 
    873, 
    874, 
    875, 
    876, 
    880, 
    881, 
    882, 
    883, 
    885, 
    886, 
    887, 
    888, 
    889, 
    890, 
    891, 
    892, 
    893, 
    894, 
    896, 
    897, 
    898, 
    899, 
    903, 
    904, 
    905, 
    906, 
    908, 
    909, 
    910, 
    911, 
    912, 
    913, 
    914, 
    915, 
    916, 
    917, 
    919, 
    920, 
    921, 
    922, 
    926, 
    927, 
    928, 
    929, 
    931, 
    932, 
    933, 
    934, 
    935, 
    936, 
    937, 
    938, 
    939, 
    940, 
    942, 
    943, 
    944, 
    945, 
    949, 
    950, 
    951, 
    952, 
    954, 
    955, 
    956, 
    957, 
    958, 
    959, 
    960, 
    961, 
    962, 
    963, 
    965, 
    966, 
    967, 
    968, 
    972, 
    973, 
    974, 
    975, 
    977, 
    978, 
    979, 
    980, 
    981, 
    982, 
    983, 
    984, 
    985, 
    986, 
    988, 
    989, 
    990, 
    991, 
    995, 
    996, 
    997, 
    998, 
    1000, 
    1001, 
    1002, 
    1003, 
    1004, 
    1005, 
    1006, 
    1007, 
    1008, 
    1009, 
    1011, 
    1012, 
    1013, 
    1014, 
    1018, 
    1019, 
    1020, 
    1021, 
    1023, 
    1024, 
    1025, 
    1026, 
    1027, 
    1028, 
    1029, 
    1030, 
    1031, 
    1032, 
    1034, 
    1035, 
    1036, 
    1037, 
    1041, 
    1042, 
    1043, 
    1044, 
    1046, 
    1047, 
    1048, 
    1049, 
    1050, 
    1051, 
    1052, 
    1053, 
    1054, 
    1055, 
    1057, 
    1058, 
    1059, 
    1060, 
    1064, 
    1065, 
    1066, 
    1067, 
    1069, 
    1070, 
    1071, 
    1072, 
    1073, 
    1074, 
    1075, 
    1076, 
    1077, 
    1078, 
    1080, 
    1081, 
    1082, 
    1083, 
    1087, 
    1088, 
    1089, 
    1090, 
    1092, 
    1093, 
    1094, 
    1095, 
    1096, 
    1097, 
    1098, 
    1099, 
    1100, 
    1101, 
    1103, 
    1104, 
    1105, 
    1106, 
    1110, 
    1111, 
    1112, 
    1113, 
    1115, 
    1116, 
    1117, 
    1118, 
    1119, 
    1120, 
    1121, 
    1122, 
    1123, 
    1124, 
    1126, 
    1127, 
    1128, 
    1129, 
    1133, 
    1134, 
    1135, 
    1136, 
    1138, 
    1139, 
    1140, 
    1141, 
    1142, 
    1143, 
    1144, 
    1145, 
    1146, 
    1147, 
    1149, 
    1150, 
    1151, 
    1152, 
    1156, 
    1157, 
    1158, 
    1159, 
    1161, 
    1162, 
    1163, 
    1164, 
    1165, 
    1166, 
    1167, 
    1168, 
    1169, 
    1170, 
    1172, 
    1173, 
    1174, 
    1175, 
    1179, 
    1180, 
    1181, 
    1182, 
    1184, 
    1185, 
    1186, 
    1187, 
    1188, 
    1189, 
    1190, 
    1191, 
    1192, 
    1193, 
    1195, 
    1196, 
    1197, 
    1198, 
    1202, 
    1203, 
    1204, 
    1205, 
    1207, 
    1208, 
    1209, 
    1210, 
    1211, 
    1212, 
    1213, 
    1214, 
    1215, 
    1216, 
    1218, 
    1219, 
    1220, 
    1221, 
    1225, 
    1226, 
    1227, 
    1228, 
    1230, 
    1231, 
    1232, 
    1233, 
    1234, 
    1235, 
    1236, 
    1237, 
    1238, 
    1239, 
    1241, 
    1242, 
    1243, 
    1244, 
    1248, 
    1249, 
    1250, 
    1251, 
    1253, 
    1254, 
    1255, 
    1256, 
    1257, 
    1258, 
    1259, 
    1260, 
    1261, 
    1262, 
    1264, 
    1265, 
    1266, 
    1267, 
    1271, 
    1272, 
    1273, 
    1274, 
    1276, 
    1277, 
    1278, 
    1279, 
    1280, 
    1281, 
    1282, 
    1283, 
    1284, 
    1285, 
    1287, 
    1288, 
    1289, 
    1290, 
    1294, 
    1295, 
    1296, 
    1297, 
    1299, 
    1300, 
    1301, 
    1302, 
    1303, 
    1304, 
    1305, 
    1306, 
    1307, 
    1308, 
    1310, 
    1311, 
    1312, 
    1313, 
    1317, 
    1318, 
    1319, 
    1320, 
    1322, 
    1323, 
    1324, 
    1325, 
    1326, 
    1327, 
    1328, 
    1329, 
    1330, 
    1331, 
    1333, 
    1334, 
    1335, 
    1336, 
    1337, 
    1341, 
    1342, 
    1343, 
    1344, 
    1346, 
    1347, 
    1348, 
    1349, 
    1350, 
    1351, 
    1352, 
    1353, 
    1354, 
    1355, 
    1356, 
    1357, 
    1358, 
    1359, 
    1360, 
    1361, 
    1362, 
    1363, 
    1364, 
    1365, 
    1366, 
    1367, 
    1368, 
    1369, 
    1370, 
    1371, 
    1372, 
    1373, 
    1374, 
    1375, 
    1376, 
    1377, 
    1378, 
    1379, 
    1380, 
    1381, 
    1382, 
    1383, 
    1384, 
    1385, 
    1386, 
    1387, 
    1388, 
    1389, 
    1390, 
    1391, 
    1392, 
    1393, 
    1394, 
    1395, 
    1396, 
    1397, 
    1398, 
    1399, 
    1400, 
    1401, 
    1402, 
    1403, 
    1404, 
    1405, 
    1406, 
    1407, 
    1408, 
    1409, 
    1410, 
    1411, 
    1412, 
    1413, 
    1414, 
    1415, 
    1416, 
    1417, 
    1418, 
    1419, 
    1420, 
    1421, 
    1422, 
    1423, 
    1424, 
    1425, 
    1426, 
    1427, 
    1428, 
    1429, 
    1430, 
    1431, 
    1433, 
    1434, 
    1435, 
    1436, 
    1440, 
    1441, 
    1442, 
    1443, 
    1445, 
    1446, 
    1447, 
    1448, 
    1449, 
    1450, 
    1451, 
    1452, 
    1453, 
    1454, 
    1455, 
    1457, 
    1458, 
    1459, 
    1460, 
    1464, 
    1465, 
    1466, 
    1467, 
    1469, 
    1470, 
    1471, 
    1472, 
    1473, 
    1474, 
    1475, 
    1476, 
    1477, 
    1478, 
    1479, 
    1480, 
    1481, 
    1482, 
    1483, 
    1484, 
    1485, 
    1486, 
    1487, 
    1488, 
    1489, 
    1490, 
    1491, 
    1492, 
    1493, 
    1494, 
    1495, 
    1496, 
    1497, 
    1498, 
    1499, 
    1500, 
    1501, 
    1502, 
    1503, 
    1504, 
    1505, 
    1506, 
    1507, 
    1508, 
    1509, 
    1510, 
    1511, 
    1512, 
    1513, 
    1514, 
    1515, 
    1516, 
    1517, 
    1518, 
    1519, 
    1520, 
    1521, 
    1522, 
    1523, 
    1524, 
    1525, 
    1526, 
    1527, 
    1528, 
    1529, 
    1530, 
    1531, 
    1532, 
    1533, 
    1534, 
    1535, 
    1536, 
    1537, 
    1538, 
    1539, 
    1540, 
    1541, 
    1542, 
    1543, 
    1544, 
    1545, 
    1546, 
    1547, 
    1549, 
    1550, 
    1551, 
    1552, 
    1556, 
    1557, 
    1558, 
    1559, 
    1561, 
    1562, 
    1563, 
    1564, 
    1565, 
    1566, 
    1567, 
    1568, 
    1569, 
    1570, 
    1571, 
    1573, 
    1574, 
    1575, 
    1576, 
    1580, 
    1581, 
    1582, 
    1583, 
    1585, 
    1586, 
    1587, 
    1588, 
    1589, 
    1590, 
    1591, 
    1592, 
    1593, 
    1594, 
    1595, 
    1596, 
    1597, 
    1598, 
    1599, 
    1600, 
    1601, 
    1602, 
    1603, 
    1604, 
    1605, 
    1606, 
    1607, 
    1608, 
    1609, 
    1610, 
    1611, 
    1612, 
    1613, 
    1614, 
    1615, 
    1616, 
    1617, 
    1618, 
    1619, 
    1620, 
    1621, 
    1622, 
    1623, 
    1624, 
    1625, 
    1626, 
    1627, 
    1628, 
    1629, 
    1630, 
    1631, 
    1632, 
    1633, 
    1634, 
    1635, 
    1636, 
    1637, 
    1638, 
    1639, 
    1640, 
    1641, 
    1642, 
    1643, 
    1644, 
    1645, 
    1646, 
    1647, 
    1648, 
    1649, 
    1650, 
    1651, 
    1652, 
    1653, 
    1654, 
    1655, 
    1656, 
    1657, 
    1658, 
    1659, 
    1660, 
    1661, 
    1662, 
    1663, 
    1665, 
    1666, 
    1667, 
    1668, 
    1672, 
    1673, 
    1674, 
    1675, 
    1677, 
    1678, 
    1679, 
    1680, 
    1681, 
    1682, 
    1683, 
    1684, 
    1685, 
    1686, 
    1687, 
    1689, 
    1690, 
    1691, 
    1692, 
    1696, 
    1697, 
    1698, 
    1699, 
    1701, 
    1702, 
    1703, 
    1704, 
    1705, 
    1706, 
    1707, 
    1708, 
    1709, 
    1710, 
    1711, 
    1712, 
    1713, 
    1714, 
    1715, 
    1716, 
    1717, 
    1718, 
    1719, 
    1720, 
    1721, 
    1722, 
    1723, 
    1724, 
    1725, 
    1726, 
    1727, 
    1728, 
    1729, 
    1730, 
    1731, 
    1732, 
    1733, 
    1734, 
    1735, 
    1736, 
    1737, 
    1738, 
    1739, 
    1740, 
    1741, 
    1742, 
    1743, 
    1744, 
    1745, 
    1746, 
    1747, 
    1748, 
    1749, 
    1750, 
    1751, 
    1752, 
    1753, 
    1754, 
    1755, 
    1756, 
    1757, 
    1758, 
    1759, 
    1760, 
    1761, 
    1762, 
    1763, 
    1764, 
    1765, 
    1766, 
    1767, 
    1768, 
    1769, 
    1770, 
    1771, 
    1772, 
    1773, 
    1774, 
    1775, 
    1776, 
    1777, 
    1778, 
    1779, 
    1781, 
    1782, 
    1783, 
    1784, 
    1788, 
    1789, 
    1790, 
    1791, 
    1793, 
    1794, 
    1795, 
    1796, 
    1797, 
    1798, 
    1799, 
    1800, 
    1801, 
    1802, 
    1803, 
    1805, 
    1806, 
    1807, 
    1808, 
    1812, 
    1813, 
    1814, 
    1815, 
    1817, 
    1818, 
    1819, 
    1820, 
    1821, 
    1822, 
    1823, 
    1824, 
    1825, 
    1826, 
    1827, 
    1828, 
    1829, 
    1830, 
    1831, 
    1832, 
    1833, 
    1834, 
    1835, 
    1836, 
    1837, 
    1838, 
    1839, 
    1840, 
    1841, 
    1842, 
    1843, 
    1844, 
    1845, 
    1846, 
    1847, 
    1848, 
    1849, 
    1850, 
    1851, 
    1852, 
    1853, 
    1854, 
    1855, 
    1856, 
    1857, 
    1858, 
    1859, 
    1860, 
    1861, 
    1862, 
    1863, 
    1864, 
    1865, 
    1866, 
    1867, 
    1868, 
    1869, 
    1870, 
    1871, 
    1872, 
    1873, 
    1874, 
    1875, 
    1876, 
    1877, 
    1878, 
    1879, 
    1880, 
    1881, 
    1882, 
    1883, 
    1884, 
    1885, 
    1886, 
    1887, 
    1888, 
    1889, 
    1890, 
    1891, 
    1892, 
    1893, 
    1894, 
    1895, 
    1897, 
    1898, 
    1899, 
    1900, 
    1904, 
    1905, 
    1906, 
    1907, 
    1909, 
    1910, 
    1911, 
    1912, 
    1913, 
    1914, 
    1915, 
    1916, 
    1917, 
    1918, 
    1919, 
    1921, 
    1922, 
    1923, 
    1924, 
    1928, 
    1929, 
    1930, 
    1931, 
    1933, 
    1934, 
    1935, 
    1936, 
    1937, 
    1938, 
    1939, 
    1940, 
    1941, 
    1942, 
    1943, 
    1944, 
    1945, 
    1946, 
    1947, 
    1948, 
    1949, 
    1950, 
    1951, 
    1952, 
    1953, 
    1954, 
    1955, 
    1956, 
    1957, 
    1958, 
    1959, 
    1960, 
    1961, 
    1962, 
    1963, 
    1964, 
    1965, 
    1966, 
    1967, 
    1968, 
    1969, 
    1970, 
    1971, 
    1972, 
    1973, 
    1974, 
    1975, 
    1976, 
    1977, 
    1978, 
    1979, 
    1980, 
    1981, 
    1982, 
    1983, 
    1984, 
    1985, 
    1986, 
    1987, 
    1988, 
    1989, 
    1990, 
    1991, 
    1992, 
    1993, 
    1994, 
    1995, 
    1996, 
    1997, 
    1998, 
    1999, 
    2000, 
    2001, 
    2002, 
    2003, 
    2004, 
    2005, 
    2006, 
    2007, 
    2008, 
    2009, 
    2010, 
    2011, 
    2013, 
    2014, 
    2015, 
    2016, 
    2020, 
    2021, 
    2022, 
    2023, 
    2025, 
    2026, 
    2027, 
    2028, 
    2029, 
    2030, 
    2031, 
    2032, 
    2033, 
    2034, 
    2035, 
    2037, 
    2038, 
    2039, 
    2040, 
    2044, 
    2045, 
    2046, 
    2047, 
    2049, 
    2050, 
    2051, 
    2052, 
    2053, 
    2054, 
    2055, 
    2056, 
    2057, 
    2058, 
    2059, 
    2060, 
    2061, 
    2062, 
    2063, 
    2064, 
    2065, 
    2066, 
    2067, 
    2068, 
    2069, 
    2070, 
    2071, 
    2072, 
    2073, 
    2074, 
    2075, 
    2076, 
    2077, 
    2078, 
    2079, 
    2080, 
    2081, 
    2082, 
    2083, 
    2084, 
    2085, 
    2086, 
    2087, 
    2088, 
    2089, 
    2090, 
    2091, 
    2092, 
    2093, 
    2094, 
    2095, 
    2096, 
    2097, 
    2098, 
    2099, 
    2100, 
    2101, 
    2102, 
    2103, 
    2104, 
    2105, 
    2106, 
    2107, 
    2108, 
    2109, 
    2110, 
    2111, 
    2112, 
    2113, 
    2114, 
    2115, 
    2116, 
    2117, 
    2118, 
    2119, 
    2120, 
    2121, 
    2122, 
    2123, 
    2124, 
    2125, 
    2126, 
    2127, 
    2129, 
    2130, 
    2131, 
    2132, 
    2136, 
    2137, 
    2138, 
    2139, 
    2141, 
    2142, 
    2143, 
    2144, 
    2145, 
    2146, 
    2147, 
    2148, 
    2149, 
    2150, 
    2151, 
    2153, 
    2154, 
    2155, 
    2156, 
    2160, 
    2161, 
    2162, 
    2163, 
    2165, 
    2166, 
    2167, 
    2168, 
    2169, 
    2170, 
    2171, 
    2172, 
    2173, 
    2174, 
    2175, 
    2176, 
    2177, 
    2178, 
    2179, 
    2180, 
    2181, 
    2182, 
    2183, 
    2184, 
    2185, 
    2186, 
    2187, 
    2188, 
    2189, 
    2190, 
    2191, 
    2192, 
    2193, 
    2194, 
    2195, 
    2196, 
    2197, 
    2198, 
    2199, 
    2200, 
    2201, 
    2202, 
    2203, 
    2204, 
    2205, 
    2206, 
    2207, 
    2208, 
    2209, 
    2210, 
    2211, 
    2212, 
    2213, 
    2214, 
    2215, 
    2216, 
    2217, 
    2218, 
    2219, 
    2220, 
    2221, 
    2222, 
    2223, 
    2224, 
    2225, 
    2226, 
    2227, 
    2228, 
    2229, 
    2230, 
    2231, 
    2232, 
    2233, 
    2234, 
    2235, 
    2236, 
    2237, 
    2238, 
    2239, 
    2240, 
    2241, 
    2242, 
    2243, 
    2245, 
    2246, 
    2247, 
    2248, 
    2252, 
    2253, 
    2254, 
    2255, 
    2257, 
    2258, 
    2259, 
    2260, 
    2261, 
    2262, 
    2263, 
    2264, 
    2265, 
    2266, 
    2267, 
    2269, 
    2270, 
    2271, 
    2272, 
    2276, 
    2277, 
    2278, 
    2279, 
    2281, 
    2282, 
    2283, 
    2284, 
    2285, 
    2286, 
    2287, 
    2288, 
    2289, 
    2290, 
    2291, 
    2292, 
    2293, 
    2294, 
    2295, 
    2296, 
    2297, 
    2298, 
    2299, 
    2300, 
    2301, 
    2302, 
    2303, 
    2304, 
    2305, 
    2306, 
    2307, 
    2308, 
    2309, 
    2310, 
    2311, 
    2312, 
    2313, 
    2314, 
    2315, 
    2316, 
    2317, 
    2318, 
    2319, 
    2320, 
    2321, 
    2322, 
    2323, 
    2324, 
    2325, 
    2326, 
    2327, 
    2328, 
    2329, 
    2330, 
    2331, 
    2332, 
    2333, 
    2334, 
    2335, 
    2336, 
    2337, 
    2338, 
    2339, 
    2340, 
    2341, 
    2342, 
    2343, 
    2344, 
    2345, 
    2346, 
    2347, 
    2348, 
    2349, 
    2350, 
    2351, 
    2352, 
    2353, 
    2354, 
    2355, 
    2356, 
    2357, 
    2358, 
    2359, 
    2361, 
    2362, 
    2363, 
    2364, 
    2368, 
    2369, 
    2370, 
    2371, 
    2373, 
    2374, 
    2375, 
    2376, 
    2377, 
    2378, 
    2379, 
    2380, 
    2381, 
    2382, 
    2383, 
    2385, 
    2386, 
    2387, 
    2388, 
    2392, 
    2393, 
    2394, 
    2395, 
    2397, 
    2398, 
    2399, 
    2400, 
    2401, 
    2402, 
    2403, 
    2404, 
    2405, 
    2406, 
    2407, 
    2408, 
    2409, 
    2410, 
    2411, 
    2412, 
    2413, 
    2414, 
    2415, 
    2416, 
    2417, 
    2418, 
    2419, 
    2420, 
    2421, 
    2422, 
    2423, 
    2424, 
    2425, 
    2426, 
    2427, 
    2428, 
    2429, 
    2430, 
    2431, 
    2432, 
    2433, 
    2434, 
    2435, 
    2436, 
    2437, 
    2438, 
    2439, 
    2440, 
    2441, 
    2442, 
    2443, 
    2444, 
    2445, 
    2446, 
    2447, 
    2448, 
    2449, 
    2450, 
    2451, 
    2452, 
    2453, 
    2454, 
    2455, 
    2456, 
    2457, 
    2458, 
    2459, 
    2460, 
    2461, 
    2462, 
    2463, 
    2464, 
    2465, 
    2466, 
    2467, 
    2468, 
    2469, 
    2470, 
    2471, 
    2472, 
    2473, 
    2474, 
    2475, 
    2477, 
    2478, 
    2479, 
    2480, 
    2484, 
    2485, 
    2486, 
    2487, 
    2489, 
    2490, 
    2491, 
    2492, 
    2493, 
    2494, 
    2495, 
    2496, 
    2497, 
    2498, 
    2499, 
    2501, 
    2502, 
    2503, 
    2504, 
    2508, 
    2509, 
    2510, 
    2511, 
    2513, 
    2514, 
    2515, 
    2516, 
    2517, 
    2518, 
    2519, 
    2520, 
    2521, 
    2522, 
    2523, 
    2524, 
    2525, 
    2526, 
    2527, 
    2528, 
    2529, 
    2530, 
    2531, 
    2532, 
    2533, 
    2534, 
    2535, 
    2536, 
    2537, 
    2538, 
    2539, 
    2540, 
    2541, 
    2542, 
    2543, 
    2544, 
    2545, 
    2546, 
    2547, 
    2548, 
    2549, 
    2550, 
    2551, 
    2552, 
    2553, 
    2554, 
    2555, 
    2556, 
    2557, 
    2558, 
    2559, 
    2560, 
    2561, 
    2562, 
    2563, 
    2564, 
    2565, 
    2566, 
    2567, 
    2568, 
    2569, 
    2570, 
    2571, 
    2572, 
    2573, 
    2574, 
    2575, 
    2576, 
    2577, 
    2578, 
    2579, 
    2580, 
    2581, 
    2582, 
    2583, 
    2584, 
    2585, 
    2586, 
    2587, 
    2588, 
    2589, 
    2590, 
    2591, 
    2593, 
    2594, 
    2595, 
    2596, 
    2600, 
    2601, 
    2602, 
    2603, 
    2605, 
    2606, 
    2607, 
    2608, 
    2609, 
    2610, 
    2611, 
    2612, 
    2613, 
    2614, 
    2615, 
    2617, 
    2618, 
    2619, 
    2620, 
    2624, 
    2625, 
    2626, 
    2627, 
    2629, 
    2630, 
    2631, 
    2632, 
    2633, 
    2634, 
    2635, 
    2636, 
    2637, 
    2638, 
    2639, 
    2640, 
    2641, 
    2642, 
    2643, 
    2644, 
    2645, 
    2646, 
    2647, 
    2648, 
    2649, 
    2650, 
    2651, 
    2652, 
    2653, 
    2654, 
    2655, 
    2656, 
    2657, 
    2658, 
    2659, 
    2660, 
    2661, 
    2662, 
    2663, 
    2664, 
    2665, 
    2666, 
    2667, 
    2668, 
    2669, 
    2670, 
    2671, 
    2672, 
    2673, 
    2674, 
    2675, 
    2676, 
    2677, 
    2678, 
    2679, 
    2680, 
    2681, 
    2682, 
    2683, 
    2684, 
    2685, 
    2686, 
    2687, 
    2688, 
    2689, 
    2690, 
    2691, 
    2692, 
    2693, 
    2694, 
    2695, 
    2696, 
    2697, 
    2698, 
    2699, 
    2700, 
    2701, 
    2702, 
    2703, 
    2704, 
    2705, 
    2706, 
    2707, 
    2709, 
    2710, 
    2711, 
    2712, 
    2716, 
    2717, 
    2718, 
    2719, 
    2721, 
    2722, 
    2723, 
    2724, 
    2725, 
    2726, 
    2727, 
    2728, 
    2729, 
    2730, 
    2731, 
    2733, 
    2734, 
    2735, 
    2736, 
    2740, 
    2741, 
    2742, 
    2743, 
    2745, 
    2746, 
    2747, 
    2748, 
    2749, 
    2750, 
    2751, 
    2752, 
    2753, 
    2754, 
    2755, 
    2756, 
    2757, 
    2758, 
    2759, 
    2760, 
    2761, 
    2762, 
    2763, 
    2764, 
    2765, 
    2766, 
    2767, 
    2768, 
    2769, 
    2770, 
    2771, 
    2772, 
    2773, 
    2774, 
    2775, 
    2776, 
    2777, 
    2778, 
    2779, 
    2780, 
    2781, 
    2782, 
    2783, 
    2784, 
    2785, 
    2786, 
    2787, 
    2788, 
    2789, 
    2790, 
    2791, 
    2792, 
    2793, 
    2794, 
    2795, 
    2796, 
    2797, 
    2798, 
    2799, 
    2800, 
    2801, 
    2802, 
    2803, 
    2804, 
    2805, 
    2806, 
    2807, 
    2808, 
    2809, 
    2810, 
    2811, 
    2812, 
    2813, 
    2814, 
    2815, 
    2816, 
    2817, 
    2818, 
    2819, 
    2820, 
    2821, 
    2822, 
    2823, 
    2825, 
    2826, 
    2827, 
    2828, 
    2832, 
    2833, 
    2834, 
    2835, 
    2837, 
    2838, 
    2839, 
    2840, 
    2841, 
    2842, 
    2843, 
    2844, 
    2845, 
    2846, 
    2847, 
    2849, 
    2850, 
    2851, 
    2852, 
    2856, 
    2857, 
    2858, 
    2859, 
    2861, 
    2862, 
    2863, 
    2864, 
    2865, 
    2866, 
    2867, 
    2868, 
    2869, 
    2870, 
    2871, 
    2872, 
    2873, 
    2874, 
    2875, 
    2876, 
    2877, 
    2878, 
    2879, 
    2880, 
    2881, 
    2882, 
    2883, 
    2884, 
    2885, 
    2886, 
    2887, 
    2888, 
    2889, 
    2890, 
    2891, 
    2892, 
    2893, 
    2894, 
    2895, 
    2896, 
    2897, 
    2898, 
    2899, 
    2900, 
    2901, 
    2902, 
    2903, 
    2904, 
    2905, 
    2906, 
    2907, 
    2908, 
    2909, 
    2910, 
    2911, 
    2912, 
    2913, 
    2914, 
    2915, 
    2916, 
    2917, 
    2918, 
    2919, 
    2920, 
    2921, 
    2922, 
    2923, 
    2924, 
    2925, 
    2926, 
    2927, 
    2928, 
    2929, 
    2930, 
    2931, 
    2932, 
    2933, 
    2934, 
    2935, 
    2936, 
    2937, 
    2938, 
    2939, 
    2941, 
    2942, 
    2943, 
    2944, 
    2948, 
    2949, 
    2950, 
    2951, 
    2953, 
    2954, 
    2955, 
    2956, 
    2957, 
    2958, 
    2959, 
    2960, 
    2961, 
    2962, 
    2963, 
    2965, 
    2966, 
    2967, 
    2968, 
    2972, 
    2973, 
    2974, 
    2975, 
    2977, 
    2978, 
    2979, 
    2980, 
    2981, 
    2982, 
    2983, 
    2984, 
    2985, 
    2986, 
    2987, 
    2988, 
    2989, 
    2990, 
    2991, 
    2992, 
    2993, 
    2994, 
    2995, 
    2996, 
    2997, 
    2998, 
    2999, 
    3000, 
    3001, 
    3002, 
    3003, 
    3004, 
    3005, 
    3006, 
    3007, 
    3008, 
    3009, 
    3010, 
    3011, 
    3012, 
    3013, 
    3014, 
    3015, 
    3016, 
    3017, 
    3018, 
    3019, 
    3020, 
    3021, 
    3022, 
    3023, 
    3024, 
    3025, 
    3026, 
    3027, 
    3028, 
    3029, 
    3030, 
    3031, 
    3032, 
    3033, 
    3034, 
    3035, 
    3036, 
    3037, 
    3038, 
    3039, 
    3040, 
    3041, 
    3042, 
    3043, 
    3044, 
    3045, 
    3046, 
    3047, 
    3048, 
    3049, 
    3050, 
    3051, 
    3052, 
    3053, 
    3054, 
    3055, 
    3057, 
    3058, 
    3059, 
    3060, 
    3064, 
    3065, 
    3066, 
    3067, 
    3069, 
    3070, 
    3071, 
    3072, 
    3073, 
    3074, 
    3075, 
    3076, 
    3077, 
    3078, 
    3079, 
    3081, 
    3082, 
    3083, 
    3084, 
    3088, 
    3089, 
    3090, 
    3091, 
    3093, 
    3094, 
    3095, 
    3096, 
    3097, 
    3098, 
    3099, 
    3100, 
    3101, 
    3102, 
    3103, 
    3104, 
    3105, 
    3106, 
    3107, 
    3108, 
    3109, 
    3110, 
    3111, 
    3112, 
    3113, 
    3114, 
    3115, 
    3116, 
    3117, 
    3118, 
    3119, 
    3120, 
    3121, 
    3122, 
    3123, 
    3124, 
    3125, 
    3126, 
    3127, 
    3128, 
    3129, 
    3130, 
    3131, 
    3132, 
    3133, 
    3134, 
    3135, 
    3136, 
    3137, 
    3138, 
    3139, 
    3140, 
    3141, 
    3142, 
    3143, 
    3144, 
    3145, 
    3146, 
    3147, 
    3148, 
    3149, 
    3150, 
    3151, 
    3152, 
    3153, 
    3154, 
    3155, 
    3156, 
    3157, 
    3158, 
    3159, 
    3160, 
    3161, 
    3162, 
    3163, 
    3164, 
    3165, 
    3166, 
    3167, 
    3168, 
    3169, 
    3170, 
    3171, 
    3173, 
    3174, 
    3175, 
    3176, 
    3180, 
    3181, 
    3182, 
    3183, 
    3185, 
    3186, 
    3187, 
    3188, 
    3189, 
    3190, 
    3191, 
    3192, 
    3193, 
    3194, 
    3195, 
    3197, 
    3198, 
    3199, 
    3200, 
    3204, 
    3205, 
    3206, 
    3207, 
    3209, 
    3210, 
    3211, 
    3212, 
    3213, 
    3214, 
    3215, 
    3216, 
    3217, 
    3218, 
    3219, 
    3220, 
    3221, 
    3222, 
    3223, 
    3224, 
    3225, 
    3226, 
    3227, 
    3228, 
    3229, 
    3230, 
    3231, 
    3232, 
    3233, 
    3234, 
    3235, 
    3236, 
    3237, 
    3238, 
    3239, 
    3240, 
    3241, 
    3242, 
    3243, 
    3244, 
    3245, 
    3246, 
    3247, 
    3248, 
    3249, 
    3250, 
    3251, 
    3252, 
    3253, 
    3254, 
    3255, 
    3256, 
    3257, 
    3258, 
    3259, 
    3260, 
    3261, 
    3262, 
    3263, 
    3264, 
    3265, 
    3266, 
    3267, 
    3268, 
    3269, 
    3270, 
    3271, 
    3272, 
    3273, 
    3274, 
    3275, 
    3276, 
    3277, 
    3278, 
    3279, 
    3280, 
    3281, 
    3282, 
    3283, 
    3284, 
    3285, 
    3286, 
    3287, 
    3289, 
    3290, 
    3291, 
    3292, 
    3296, 
    3297, 
    3298, 
    3299, 
    3301, 
    3302, 
    3303, 
    3304, 
    3305, 
    3306, 
    3307, 
    3308, 
    3309, 
    3310, 
    3311, 
    3313, 
    3314, 
    3315, 
    3316, 
    3320, 
    3321, 
    3322, 
    3323, 
    3325, 
    3326, 
    3327, 
    3328, 
    3329, 
    3330, 
    3331, 
    3332, 
    3333, 
    3334, 
    3335, 
    3336, 
    3337, 
    3338, 
    3339, 
    3340, 
    3341, 
    3342, 
    3343, 
    3344, 
    3345, 
    3346, 
    3347, 
    3348, 
    3349, 
    3350, 
    3351, 
    3352, 
    3353, 
    3354, 
    3355, 
    3356, 
    3357, 
    3358, 
    3359, 
    3360, 
    3361, 
    3362, 
    3363, 
    3364, 
    3365, 
    3366, 
    3367, 
    3368, 
    3369, 
    3370, 
    3371, 
    3372, 
    3373, 
    3374, 
    3375, 
    3376, 
    3377, 
    3378, 
    3379, 
    3380, 
    3381, 
    3382, 
    3383, 
    3384, 
    3385, 
    3386, 
    3387, 
    3388, 
    3389, 
    3390, 
    3391, 
    3392, 
    3393, 
    3394, 
    3395, 
    3396, 
    3397, 
    3398, 
    3399, 
    3400, 
    3401, 
    3402, 
    3403, 
    3405, 
    3406, 
    3407, 
    3408, 
    3412, 
    3413, 
    3414, 
    3415, 
    3417, 
    3418, 
    3419, 
    3420, 
    3421, 
    3422, 
    3423, 
    3424, 
    3425, 
    3426, 
    3427, 
    3429, 
    3430, 
    3431, 
    3432, 
    3436, 
    3437, 
    3438, 
    3439, 
    3441, 
    3442, 
    3443, 
    3444, 
    3445, 
    3446, 
    3447, 
    3448, 
    3449, 
    3450, 
    3451, 
    3452, 
    3453, 
    3454, 
    3455, 
    3456, 
    3457, 
    3458, 
    3459, 
    3460, 
    3461, 
    3462, 
    3463, 
    3464, 
    3465, 
    3466, 
    3467, 
    3468, 
    3469, 
    3470, 
    3471, 
    3472, 
    3473, 
    3474, 
    3475, 
    3476, 
    3477, 
    3478, 
    3479, 
    3480, 
    3481, 
    3482, 
    3483, 
    3484, 
    3485, 
    3486, 
    3487, 
    3488, 
    3489, 
    3490, 
    3491, 
    3492, 
    3493, 
    3494, 
    3495, 
    3496, 
    3497, 
    3498, 
    3499, 
    3500, 
    3501, 
    3502, 
    3503, 
    3504, 
    3505, 
    3506, 
    3507, 
    3508, 
    3509, 
    3510, 
    3511, 
    3512, 
    3513, 
    3514, 
    3515, 
    3516, 
    3517, 
    3518, 
    3519, 
    3521, 
    3522, 
    3523, 
    3524, 
    3528, 
    3529, 
    3530, 
    3531, 
    3533, 
    3534, 
    3535, 
    3536, 
    3537, 
    3538, 
    3539, 
    3540, 
    3541, 
    3542, 
    3543, 
    3545, 
    3546, 
    3547, 
    3548, 
    3552, 
    3553, 
    3554, 
    3555, 
    3557, 
    3558, 
    3559, 
    3560, 
    3561, 
    3562, 
    3563, 
    3564, 
    3565, 
    3566, 
    3567, 
    3568, 
    3569, 
    3570, 
    3571, 
    3572, 
    3573, 
    3574, 
    3575, 
    3576, 
    3577, 
    3578, 
    3579, 
    3580, 
    3581, 
    3582, 
    3583, 
    3584, 
    3585, 
    3586, 
    3587, 
    3588, 
    3589, 
    3590, 
    3591, 
    3592, 
    3593, 
    3594, 
    3595, 
    3596, 
    3597, 
    3598, 
    3599, 
    3600, 
    3601, 
    3602, 
    3603, 
    3604, 
    3605, 
    3606, 
    3607, 
    3608, 
    3609, 
    3610, 
    3611, 
    3612, 
    3613, 
    3614, 
    3615, 
    3616, 
    3617, 
    3618, 
    3619, 
    3620, 
    3621, 
    3622, 
    3623, 
    3624, 
    3625, 
    3626, 
    3627, 
    3628, 
    3629, 
    3630, 
    3631, 
    3632, 
    3633, 
    3634, 
    3635, 
    3637, 
    3638, 
    3639, 
    3640, 
    3644, 
    3645, 
    3646, 
    3647, 
    3649, 
    3650, 
    3651, 
    3652, 
    3653, 
    3654, 
    3655, 
    3656, 
    3657, 
    3658, 
    3659, 
    3661, 
    3662, 
    3663, 
    3664, 
    3668, 
    3669, 
    3670, 
    3671, 
    3673, 
    3674, 
    3675, 
    3676, 
    3677, 
    3678, 
    3679, 
    3680, 
    3681, 
    3682, 
    3683, 
    3684, 
    3685, 
    3686, 
    3687, 
    3688, 
    3689, 
    3690, 
    3691, 
    3692, 
    3693, 
    3694, 
    3695, 
    3696, 
    3697, 
    3698, 
    3699, 
    3700, 
    3701, 
    3702, 
    3703, 
    3704, 
    3705, 
    3706, 
    3707, 
    3708, 
    3709, 
    3710, 
    3711, 
    3712, 
    3713, 
    3714, 
    3715, 
    3716, 
    3717, 
    3718, 
    3719, 
    3720, 
    3721, 
    3722, 
    3723, 
    3724, 
    3725, 
    3726, 
    3727, 
    3728, 
    3729, 
    3730, 
    3731, 
    3732, 
    3733, 
    3734, 
    3735, 
    3736, 
    3737, 
    3738, 
    3739, 
    3740, 
    3741, 
    3742, 
    3743, 
    3744, 
    3745, 
    3746, 
    3747, 
    3748, 
    3749, 
    3750, 
    3751, 
    3753, 
    3754, 
    3755, 
    3756, 
    3760, 
    3761, 
    3762, 
    3763, 
    3765, 
    3766, 
    3767, 
    3768, 
    3769, 
    3770, 
    3771, 
    3772, 
    3773, 
    3774, 
    3775, 
    3777, 
    3778, 
    3779, 
    3780, 
    3784, 
    3785, 
    3786, 
    3787, 
    3789, 
    3790, 
    3791, 
    3792, 
    3793, 
    3794, 
    3795, 
    3796, 
    3797, 
    3798, 
    3799, 
    3800, 
    3801, 
    3802, 
    3803, 
    3804, 
    3805, 
    3806, 
    3807, 
    3808, 
    3809, 
    3810, 
    3811, 
    3812, 
    3813, 
    3814, 
    3815, 
    3816, 
    3817, 
    3818, 
    3819, 
    3820, 
    3821, 
    3822, 
    3823, 
    3824, 
    3825, 
    3826, 
    3827, 
    3828, 
    3829, 
    3830, 
    3831, 
    3832, 
    3833, 
    3834, 
    3835, 
    3836, 
    3837, 
    3838, 
    3839, 
    3840, 
    3841, 
    3842, 
    3843, 
    3844, 
    3845, 
    3846, 
    3847, 
    3848, 
    3849, 
    3850, 
    3851, 
    3852, 
    3853, 
    3854, 
    3855, 
    3856, 
    3857, 
    3858, 
    3859, 
    3860, 
    3861, 
    3862, 
    3863, 
    3864, 
    3865, 
    3866, 
    3867, 
    3869, 
    3870, 
    3871, 
    3872, 
    3876, 
    3877, 
    3878, 
    3879, 
    3881, 
    3882, 
    3883, 
    3884, 
    3885, 
    3886, 
    3887, 
    3888, 
    3889, 
    3890, 
    3891, 
    3893, 
    3894, 
    3895, 
    3896, 
    3900, 
    3901, 
    3902, 
    3903, 
    3905, 
    3906, 
    3907, 
    3908, 
    3909, 
    3910, 
    3911, 
    3912, 
    3913, 
    3914, 
    3915, 
    3916, 
    3917, 
    3918, 
    3919, 
    3920, 
    3921, 
    3922, 
    3923, 
    3924, 
    3925, 
    3926, 
    3927, 
    3928, 
    3929, 
    3930, 
    3931, 
    3932, 
    3933, 
    3934, 
    3935, 
    3936, 
    3937, 
    3938, 
    3939, 
    3940, 
    3941, 
    3942, 
    3943, 
    3944, 
    3945, 
    3946, 
    3947, 
    3948, 
    3949, 
    3950, 
    3951, 
    3952, 
    3953, 
    3954, 
    3955, 
    3956, 
    3957, 
    3958, 
    3959, 
    3960, 
    3961, 
    3962, 
    3963, 
    3964, 
    3965, 
    3966, 
    3967, 
    3968, 
    3969, 
    3970, 
    3971, 
    3972, 
    3973, 
    3974, 
    3975, 
    3976, 
    3977, 
    3978, 
    3979, 
    3980, 
    3981, 
    3982, 
    3983, 
    3985, 
    3986, 
    3987, 
    3988, 
    3992, 
    3993, 
    3994, 
    3995, 
    3997, 
    3998, 
    3999, 
    4000, 
    4001, 
    4002, 
    4003, 
    4004, 
    4005, 
    4006, 
    4007, 
    4009, 
    4010, 
    4011, 
    4012, 
    4016, 
    4017, 
    4018, 
    4019, 
    4021, 
    4022, 
    4023, 
    4024, 
    4025, 
    4026, 
    4027, 
    4028, 
    4029, 
    4030, 
    4031, 
    4032, 
    4033, 
    4034, 
    4035, 
    4036, 
    4037, 
    4038, 
    4039, 
    4040, 
    4041, 
    4042, 
    4043, 
    4044, 
    4045, 
    4046, 
    4047, 
    4048, 
    4049, 
    4050, 
    4051
  ], 
  "heads": [[3551, 0, 0]], 
  "attrs": {"mxnet_version": ["int", 10700]}
}